{"format": "layers-model", "generatedBy": "keras v2.2.5", "convertedBy": "TensorFlow.js Converter v1.4.0", "modelTopology": {"keras_version": "2.2.5", "backend": "tensorflow", "model_config": {"class_name": "Model", "config": {"name": "model_2", "layers": [{"name": "input_2", "class_name": "InputLayer", "config": {"batch_input_shape": [null, 378, 504, 3], "dtype": "float32", "sparse": false, "name": "input_2"}, "inbound_nodes": []}, {"name": "conv2d_204", "class_name": "Conv2D", "config": {"name": "conv2d_204", "trainable": true, "dtype": "float32", "filters": 32, "kernel_size": [3, 3], "strides": [2, 2], "padding": "valid", "data_format": "channels_last", "dilation_rate": [1, 1], "activation": "linear", "use_bias": false, "kernel_initializer": {"class_name": "VarianceScaling", "config": {"scale": 1.0, "mode": "fan_avg", "distribution": "uniform", "seed": null}}, "bias_initializer": {"class_name": "Zeros", "config": {}}, "kernel_regularizer": null, "bias_regularizer": null, "activity_regularizer": null, "kernel_constraint": null, "bias_constraint": null}, "inbound_nodes": [[["input_2", 0, 0, {}]]]}, {"name": "batch_normalization_204", "class_name": "BatchNormalization", "config": {"name": "batch_normalization_204", "trainable": true, "dtype": "float32", "axis": 3, "momentum": 0.99, "epsilon": 0.001, "center": true, "scale": false, "beta_initializer": {"class_name": "Zeros", "config": {}}, "gamma_initializer": {"class_name": "Ones", "config": {}}, "moving_mean_initializer": {"class_name": "Zeros", "config": {}}, "moving_variance_initializer": {"class_name": "Ones", "config": {}}, "beta_regularizer": null, "gamma_regularizer": null, "beta_constraint": null, "gamma_constraint": null}, "inbound_nodes": [[["conv2d_204", 0, 0, {}]]]}, {"name": "activation_204", "class_name": "Activation", "config": {"name": "activation_204", "trainable": true, "dtype": "float32", "activation": "relu"}, "inbound_nodes": [[["batch_normalization_204", 0, 0, {}]]]}, {"name": "conv2d_205", "class_name": "Conv2D", "config": {"name": "conv2d_205", "trainable": true, "dtype": "float32", "filters": 32, "kernel_size": [3, 3], "strides": [1, 1], "padding": "valid", "data_format": "channels_last", "dilation_rate": [1, 1], "activation": "linear", "use_bias": false, "kernel_initializer": {"class_name": "VarianceScaling", "config": {"scale": 1.0, "mode": "fan_avg", "distribution": "uniform", "seed": null}}, "bias_initializer": {"class_name": "Zeros", "config": {}}, "kernel_regularizer": null, "bias_regularizer": null, "activity_regularizer": null, "kernel_constraint": null, "bias_constraint": null}, "inbound_nodes": [[["activation_204", 0, 0, {}]]]}, {"name": "batch_normalization_205", "class_name": "BatchNormalization", "config": {"name": "batch_normalization_205", "trainable": true, "dtype": "float32", "axis": 3, "momentum": 0.99, "epsilon": 0.001, "center": true, "scale": false, "beta_initializer": {"class_name": "Zeros", "config": {}}, "gamma_initializer": {"class_name": "Ones", "config": {}}, "moving_mean_initializer": {"class_name": "Zeros", "config": {}}, "moving_variance_initializer": {"class_name": "Ones", "config": {}}, "beta_regularizer": null, "gamma_regularizer": null, "beta_constraint": null, "gamma_constraint": null}, "inbound_nodes": [[["conv2d_205", 0, 0, {}]]]}, {"name": "activation_205", "class_name": "Activation", "config": {"name": "activation_205", "trainable": true, "dtype": "float32", "activation": "relu"}, "inbound_nodes": [[["batch_normalization_205", 0, 0, {}]]]}, {"name": "conv2d_206", "class_name": "Conv2D", "config": {"name": "conv2d_206", "trainable": true, "dtype": "float32", "filters": 64, "kernel_size": [3, 3], "strides": [1, 1], "padding": "same", "data_format": "channels_last", "dilation_rate": [1, 1], "activation": "linear", "use_bias": false, "kernel_initializer": {"class_name": "VarianceScaling", "config": {"scale": 1.0, "mode": "fan_avg", "distribution": "uniform", "seed": null}}, "bias_initializer": {"class_name": "Zeros", "config": {}}, "kernel_regularizer": null, "bias_regularizer": null, "activity_regularizer": null, "kernel_constraint": null, "bias_constraint": null}, "inbound_nodes": [[["activation_205", 0, 0, {}]]]}, {"name": "batch_normalization_206", "class_name": "BatchNormalization", "config": {"name": "batch_normalization_206", "trainable": true, "dtype": "float32", "axis": 3, "momentum": 0.99, "epsilon": 0.001, "center": true, "scale": false, "beta_initializer": {"class_name": "Zeros", "config": {}}, "gamma_initializer": {"class_name": "Ones", "config": {}}, "moving_mean_initializer": {"class_name": "Zeros", "config": {}}, "moving_variance_initializer": {"class_name": "Ones", "config": {}}, "beta_regularizer": null, "gamma_regularizer": null, "beta_constraint": null, "gamma_constraint": null}, "inbound_nodes": [[["conv2d_206", 0, 0, {}]]]}, {"name": "activation_206", "class_name": "Activation", "config": {"name": "activation_206", "trainable": true, "dtype": "float32", "activation": "relu"}, "inbound_nodes": [[["batch_normalization_206", 0, 0, {}]]]}, {"name": "max_pooling2d_5", "class_name": "MaxPooling2D", "config": {"name": "max_pooling2d_5", "trainable": true, "dtype": "float32", "pool_size": [3, 3], "padding": "valid", "strides": [2, 2], "data_format": "channels_last"}, "inbound_nodes": [[["activation_206", 0, 0, {}]]]}, {"name": "conv2d_207", "class_name": "Conv2D", "config": {"name": "conv2d_207", "trainable": true, "dtype": "float32", "filters": 80, "kernel_size": [1, 1], "strides": [1, 1], "padding": "valid", "data_format": "channels_last", "dilation_rate": [1, 1], "activation": "linear", "use_bias": false, "kernel_initializer": {"class_name": "VarianceScaling", "config": {"scale": 1.0, "mode": "fan_avg", "distribution": "uniform", "seed": null}}, "bias_initializer": {"class_name": "Zeros", "config": {}}, "kernel_regularizer": null, "bias_regularizer": null, "activity_regularizer": null, "kernel_constraint": null, "bias_constraint": null}, "inbound_nodes": [[["max_pooling2d_5", 0, 0, {}]]]}, {"name": "batch_normalization_207", "class_name": "BatchNormalization", "config": {"name": "batch_normalization_207", "trainable": true, "dtype": "float32", "axis": 3, "momentum": 0.99, "epsilon": 0.001, "center": true, "scale": false, "beta_initializer": {"class_name": "Zeros", "config": {}}, "gamma_initializer": {"class_name": "Ones", "config": {}}, "moving_mean_initializer": {"class_name": "Zeros", "config": {}}, "moving_variance_initializer": {"class_name": "Ones", "config": {}}, "beta_regularizer": null, "gamma_regularizer": null, "beta_constraint": null, "gamma_constraint": null}, "inbound_nodes": [[["conv2d_207", 0, 0, {}]]]}, {"name": "activation_207", "class_name": "Activation", "config": {"name": "activation_207", "trainable": true, "dtype": "float32", "activation": "relu"}, "inbound_nodes": [[["batch_normalization_207", 0, 0, {}]]]}, {"name": "conv2d_208", "class_name": "Conv2D", "config": {"name": "conv2d_208", "trainable": true, "dtype": "float32", "filters": 192, "kernel_size": [3, 3], "strides": [1, 1], "padding": "valid", "data_format": "channels_last", "dilation_rate": [1, 1], "activation": "linear", "use_bias": false, "kernel_initializer": {"class_name": "VarianceScaling", "config": {"scale": 1.0, "mode": "fan_avg", "distribution": "uniform", "seed": null}}, "bias_initializer": {"class_name": "Zeros", "config": {}}, "kernel_regularizer": null, "bias_regularizer": null, "activity_regularizer": null, "kernel_constraint": null, "bias_constraint": null}, "inbound_nodes": [[["activation_207", 0, 0, {}]]]}, {"name": "batch_normalization_208", "class_name": "BatchNormalization", "config": {"name": "batch_normalization_208", "trainable": true, "dtype": "float32", "axis": 3, "momentum": 0.99, "epsilon": 0.001, "center": true, "scale": false, "beta_initializer": {"class_name": "Zeros", "config": {}}, "gamma_initializer": {"class_name": "Ones", "config": {}}, "moving_mean_initializer": {"class_name": "Zeros", "config": {}}, "moving_variance_initializer": {"class_name": "Ones", "config": {}}, "beta_regularizer": null, "gamma_regularizer": null, "beta_constraint": null, "gamma_constraint": null}, "inbound_nodes": [[["conv2d_208", 0, 0, {}]]]}, {"name": "activation_208", "class_name": "Activation", "config": {"name": "activation_208", "trainable": true, "dtype": "float32", "activation": "relu"}, "inbound_nodes": [[["batch_normalization_208", 0, 0, {}]]]}, {"name": "max_pooling2d_6", "class_name": "MaxPooling2D", "config": {"name": "max_pooling2d_6", "trainable": true, "dtype": "float32", "pool_size": [3, 3], "padding": "valid", "strides": [2, 2], "data_format": "channels_last"}, "inbound_nodes": [[["activation_208", 0, 0, {}]]]}, {"name": "conv2d_212", "class_name": "Conv2D", "config": {"name": "conv2d_212", "trainable": true, "dtype": "float32", "filters": 64, "kernel_size": [1, 1], "strides": [1, 1], "padding": "same", "data_format": "channels_last", "dilation_rate": [1, 1], "activation": "linear", "use_bias": false, "kernel_initializer": {"class_name": "VarianceScaling", "config": {"scale": 1.0, "mode": "fan_avg", "distribution": "uniform", "seed": null}}, "bias_initializer": {"class_name": "Zeros", "config": {}}, "kernel_regularizer": null, "bias_regularizer": null, "activity_regularizer": null, "kernel_constraint": null, "bias_constraint": null}, "inbound_nodes": [[["max_pooling2d_6", 0, 0, {}]]]}, {"name": "batch_normalization_212", "class_name": "BatchNormalization", "config": {"name": "batch_normalization_212", "trainable": true, "dtype": "float32", "axis": 3, "momentum": 0.99, "epsilon": 0.001, "center": true, "scale": false, "beta_initializer": {"class_name": "Zeros", "config": {}}, "gamma_initializer": {"class_name": "Ones", "config": {}}, "moving_mean_initializer": {"class_name": "Zeros", "config": {}}, "moving_variance_initializer": {"class_name": "Ones", "config": {}}, "beta_regularizer": null, "gamma_regularizer": null, "beta_constraint": null, "gamma_constraint": null}, "inbound_nodes": [[["conv2d_212", 0, 0, {}]]]}, {"name": "activation_212", "class_name": "Activation", "config": {"name": "activation_212", "trainable": true, "dtype": "float32", "activation": "relu"}, "inbound_nodes": [[["batch_normalization_212", 0, 0, {}]]]}, {"name": "conv2d_210", "class_name": "Conv2D", "config": {"name": "conv2d_210", "trainable": true, "dtype": "float32", "filters": 48, "kernel_size": [1, 1], "strides": [1, 1], "padding": "same", "data_format": "channels_last", "dilation_rate": [1, 1], "activation": "linear", "use_bias": false, "kernel_initializer": {"class_name": "VarianceScaling", "config": {"scale": 1.0, "mode": "fan_avg", "distribution": "uniform", "seed": null}}, "bias_initializer": {"class_name": "Zeros", "config": {}}, "kernel_regularizer": null, "bias_regularizer": null, "activity_regularizer": null, "kernel_constraint": null, "bias_constraint": null}, "inbound_nodes": [[["max_pooling2d_6", 0, 0, {}]]]}, {"name": "conv2d_213", "class_name": "Conv2D", "config": {"name": "conv2d_213", "trainable": true, "dtype": "float32", "filters": 96, "kernel_size": [3, 3], "strides": [1, 1], "padding": "same", "data_format": "channels_last", "dilation_rate": [1, 1], "activation": "linear", "use_bias": false, "kernel_initializer": {"class_name": "VarianceScaling", "config": {"scale": 1.0, "mode": "fan_avg", "distribution": "uniform", "seed": null}}, "bias_initializer": {"class_name": "Zeros", "config": {}}, "kernel_regularizer": null, "bias_regularizer": null, "activity_regularizer": null, "kernel_constraint": null, "bias_constraint": null}, "inbound_nodes": [[["activation_212", 0, 0, {}]]]}, {"name": "batch_normalization_210", "class_name": "BatchNormalization", "config": {"name": "batch_normalization_210", "trainable": true, "dtype": "float32", "axis": 3, "momentum": 0.99, "epsilon": 0.001, "center": true, "scale": false, "beta_initializer": {"class_name": "Zeros", "config": {}}, "gamma_initializer": {"class_name": "Ones", "config": {}}, "moving_mean_initializer": {"class_name": "Zeros", "config": {}}, "moving_variance_initializer": {"class_name": "Ones", "config": {}}, "beta_regularizer": null, "gamma_regularizer": null, "beta_constraint": null, "gamma_constraint": null}, "inbound_nodes": [[["conv2d_210", 0, 0, {}]]]}, {"name": "batch_normalization_213", "class_name": "BatchNormalization", "config": {"name": "batch_normalization_213", "trainable": true, "dtype": "float32", "axis": 3, "momentum": 0.99, "epsilon": 0.001, "center": true, "scale": false, "beta_initializer": {"class_name": "Zeros", "config": {}}, "gamma_initializer": {"class_name": "Ones", "config": {}}, "moving_mean_initializer": {"class_name": "Zeros", "config": {}}, "moving_variance_initializer": {"class_name": "Ones", "config": {}}, "beta_regularizer": null, "gamma_regularizer": null, "beta_constraint": null, "gamma_constraint": null}, "inbound_nodes": [[["conv2d_213", 0, 0, {}]]]}, {"name": "activation_210", "class_name": "Activation", "config": {"name": "activation_210", "trainable": true, "dtype": "float32", "activation": "relu"}, "inbound_nodes": [[["batch_normalization_210", 0, 0, {}]]]}, {"name": "activation_213", "class_name": "Activation", "config": {"name": "activation_213", "trainable": true, "dtype": "float32", "activation": "relu"}, "inbound_nodes": [[["batch_normalization_213", 0, 0, {}]]]}, {"name": "average_pooling2d_2", "class_name": "AveragePooling2D", "config": {"name": "average_pooling2d_2", "trainable": true, "dtype": "float32", "pool_size": [3, 3], "padding": "same", "strides": [1, 1], "data_format": "channels_last"}, "inbound_nodes": [[["max_pooling2d_6", 0, 0, {}]]]}, {"name": "conv2d_209", "class_name": "Conv2D", "config": {"name": "conv2d_209", "trainable": true, "dtype": "float32", "filters": 96, "kernel_size": [1, 1], "strides": [1, 1], "padding": "same", "data_format": "channels_last", "dilation_rate": [1, 1], "activation": "linear", "use_bias": false, "kernel_initializer": {"class_name": "VarianceScaling", "config": {"scale": 1.0, "mode": "fan_avg", "distribution": "uniform", "seed": null}}, "bias_initializer": {"class_name": "Zeros", "config": {}}, "kernel_regularizer": null, "bias_regularizer": null, "activity_regularizer": null, "kernel_constraint": null, "bias_constraint": null}, "inbound_nodes": [[["max_pooling2d_6", 0, 0, {}]]]}, {"name": "conv2d_211", "class_name": "Conv2D", "config": {"name": "conv2d_211", "trainable": true, "dtype": "float32", "filters": 64, "kernel_size": [5, 5], "strides": [1, 1], "padding": "same", "data_format": "channels_last", "dilation_rate": [1, 1], "activation": "linear", "use_bias": false, "kernel_initializer": {"class_name": "VarianceScaling", "config": {"scale": 1.0, "mode": "fan_avg", "distribution": "uniform", "seed": null}}, "bias_initializer": {"class_name": "Zeros", "config": {}}, "kernel_regularizer": null, "bias_regularizer": null, "activity_regularizer": null, "kernel_constraint": null, "bias_constraint": null}, "inbound_nodes": [[["activation_210", 0, 0, {}]]]}, {"name": "conv2d_214", "class_name": "Conv2D", "config": {"name": "conv2d_214", "trainable": true, "dtype": "float32", "filters": 96, "kernel_size": [3, 3], "strides": [1, 1], "padding": "same", "data_format": "channels_last", "dilation_rate": [1, 1], "activation": "linear", "use_bias": false, "kernel_initializer": {"class_name": "VarianceScaling", "config": {"scale": 1.0, "mode": "fan_avg", "distribution": "uniform", "seed": null}}, "bias_initializer": {"class_name": "Zeros", "config": {}}, "kernel_regularizer": null, "bias_regularizer": null, "activity_regularizer": null, "kernel_constraint": null, "bias_constraint": null}, "inbound_nodes": [[["activation_213", 0, 0, {}]]]}, {"name": "conv2d_215", "class_name": "Conv2D", "config": {"name": "conv2d_215", "trainable": true, "dtype": "float32", "filters": 64, "kernel_size": [1, 1], "strides": [1, 1], "padding": "same", "data_format": "channels_last", "dilation_rate": [1, 1], "activation": "linear", "use_bias": false, "kernel_initializer": {"class_name": "VarianceScaling", "config": {"scale": 1.0, "mode": "fan_avg", "distribution": "uniform", "seed": null}}, "bias_initializer": {"class_name": "Zeros", "config": {}}, "kernel_regularizer": null, "bias_regularizer": null, "activity_regularizer": null, "kernel_constraint": null, "bias_constraint": null}, "inbound_nodes": [[["average_pooling2d_2", 0, 0, {}]]]}, {"name": "batch_normalization_209", "class_name": "BatchNormalization", "config": {"name": "batch_normalization_209", "trainable": true, "dtype": "float32", "axis": 3, "momentum": 0.99, "epsilon": 0.001, "center": true, "scale": false, "beta_initializer": {"class_name": "Zeros", "config": {}}, "gamma_initializer": {"class_name": "Ones", "config": {}}, "moving_mean_initializer": {"class_name": "Zeros", "config": {}}, "moving_variance_initializer": {"class_name": "Ones", "config": {}}, "beta_regularizer": null, "gamma_regularizer": null, "beta_constraint": null, "gamma_constraint": null}, "inbound_nodes": [[["conv2d_209", 0, 0, {}]]]}, {"name": "batch_normalization_211", "class_name": "BatchNormalization", "config": {"name": "batch_normalization_211", "trainable": true, "dtype": "float32", "axis": 3, "momentum": 0.99, "epsilon": 0.001, "center": true, "scale": false, "beta_initializer": {"class_name": "Zeros", "config": {}}, "gamma_initializer": {"class_name": "Ones", "config": {}}, "moving_mean_initializer": {"class_name": "Zeros", "config": {}}, "moving_variance_initializer": {"class_name": "Ones", "config": {}}, "beta_regularizer": null, "gamma_regularizer": null, "beta_constraint": null, "gamma_constraint": null}, "inbound_nodes": [[["conv2d_211", 0, 0, {}]]]}, {"name": "batch_normalization_214", "class_name": "BatchNormalization", "config": {"name": "batch_normalization_214", "trainable": true, "dtype": "float32", "axis": 3, "momentum": 0.99, "epsilon": 0.001, "center": true, "scale": false, "beta_initializer": {"class_name": "Zeros", "config": {}}, "gamma_initializer": {"class_name": "Ones", "config": {}}, "moving_mean_initializer": {"class_name": "Zeros", "config": {}}, "moving_variance_initializer": {"class_name": "Ones", "config": {}}, "beta_regularizer": null, "gamma_regularizer": null, "beta_constraint": null, "gamma_constraint": null}, "inbound_nodes": [[["conv2d_214", 0, 0, {}]]]}, {"name": "batch_normalization_215", "class_name": "BatchNormalization", "config": {"name": "batch_normalization_215", "trainable": true, "dtype": "float32", "axis": 3, "momentum": 0.99, "epsilon": 0.001, "center": true, "scale": false, "beta_initializer": {"class_name": "Zeros", "config": {}}, "gamma_initializer": {"class_name": "Ones", "config": {}}, "moving_mean_initializer": {"class_name": "Zeros", "config": {}}, "moving_variance_initializer": {"class_name": "Ones", "config": {}}, "beta_regularizer": null, "gamma_regularizer": null, "beta_constraint": null, "gamma_constraint": null}, "inbound_nodes": [[["conv2d_215", 0, 0, {}]]]}, {"name": "activation_209", "class_name": "Activation", "config": {"name": "activation_209", "trainable": true, "dtype": "float32", "activation": "relu"}, "inbound_nodes": [[["batch_normalization_209", 0, 0, {}]]]}, {"name": "activation_211", "class_name": "Activation", "config": {"name": "activation_211", "trainable": true, "dtype": "float32", "activation": "relu"}, "inbound_nodes": [[["batch_normalization_211", 0, 0, {}]]]}, {"name": "activation_214", "class_name": "Activation", "config": {"name": "activation_214", "trainable": true, "dtype": "float32", "activation": "relu"}, "inbound_nodes": [[["batch_normalization_214", 0, 0, {}]]]}, {"name": "activation_215", "class_name": "Activation", "config": {"name": "activation_215", "trainable": true, "dtype": "float32", "activation": "relu"}, "inbound_nodes": [[["batch_normalization_215", 0, 0, {}]]]}, {"name": "mixed_5b", "class_name": "Concatenate", "config": {"name": "mixed_5b", "trainable": true, "dtype": "float32", "axis": 3}, "inbound_nodes": [[["activation_209", 0, 0, {}], ["activation_211", 0, 0, {}], ["activation_214", 0, 0, {}], ["activation_215", 0, 0, {}]]]}, {"name": "conv2d_219", "class_name": "Conv2D", "config": {"name": "conv2d_219", "trainable": true, "dtype": "float32", "filters": 32, "kernel_size": [1, 1], "strides": [1, 1], "padding": "same", "data_format": "channels_last", "dilation_rate": [1, 1], "activation": "linear", "use_bias": false, "kernel_initializer": {"class_name": "VarianceScaling", "config": {"scale": 1.0, "mode": "fan_avg", "distribution": "uniform", "seed": null}}, "bias_initializer": {"class_name": "Zeros", "config": {}}, "kernel_regularizer": null, "bias_regularizer": null, "activity_regularizer": null, "kernel_constraint": null, "bias_constraint": null}, "inbound_nodes": [[["mixed_5b", 0, 0, {}]]]}, {"name": "batch_normalization_219", "class_name": "BatchNormalization", "config": {"name": "batch_normalization_219", "trainable": true, "dtype": "float32", "axis": 3, "momentum": 0.99, "epsilon": 0.001, "center": true, "scale": false, "beta_initializer": {"class_name": "Zeros", "config": {}}, "gamma_initializer": {"class_name": "Ones", "config": {}}, "moving_mean_initializer": {"class_name": "Zeros", "config": {}}, "moving_variance_initializer": {"class_name": "Ones", "config": {}}, "beta_regularizer": null, "gamma_regularizer": null, "beta_constraint": null, "gamma_constraint": null}, "inbound_nodes": [[["conv2d_219", 0, 0, {}]]]}, {"name": "activation_219", "class_name": "Activation", "config": {"name": "activation_219", "trainable": true, "dtype": "float32", "activation": "relu"}, "inbound_nodes": [[["batch_normalization_219", 0, 0, {}]]]}, {"name": "conv2d_217", "class_name": "Conv2D", "config": {"name": "conv2d_217", "trainable": true, "dtype": "float32", "filters": 32, "kernel_size": [1, 1], "strides": [1, 1], "padding": "same", "data_format": "channels_last", "dilation_rate": [1, 1], "activation": "linear", "use_bias": false, "kernel_initializer": {"class_name": "VarianceScaling", "config": {"scale": 1.0, "mode": "fan_avg", "distribution": "uniform", "seed": null}}, "bias_initializer": {"class_name": "Zeros", "config": {}}, "kernel_regularizer": null, "bias_regularizer": null, "activity_regularizer": null, "kernel_constraint": null, "bias_constraint": null}, "inbound_nodes": [[["mixed_5b", 0, 0, {}]]]}, {"name": "conv2d_220", "class_name": "Conv2D", "config": {"name": "conv2d_220", "trainable": true, "dtype": "float32", "filters": 48, "kernel_size": [3, 3], "strides": [1, 1], "padding": "same", "data_format": "channels_last", "dilation_rate": [1, 1], "activation": "linear", "use_bias": false, "kernel_initializer": {"class_name": "VarianceScaling", "config": {"scale": 1.0, "mode": "fan_avg", "distribution": "uniform", "seed": null}}, "bias_initializer": {"class_name": "Zeros", "config": {}}, "kernel_regularizer": null, "bias_regularizer": null, "activity_regularizer": null, "kernel_constraint": null, "bias_constraint": null}, "inbound_nodes": [[["activation_219", 0, 0, {}]]]}, {"name": "batch_normalization_217", "class_name": "BatchNormalization", "config": {"name": "batch_normalization_217", "trainable": true, "dtype": "float32", "axis": 3, "momentum": 0.99, "epsilon": 0.001, "center": true, "scale": false, "beta_initializer": {"class_name": "Zeros", "config": {}}, "gamma_initializer": {"class_name": "Ones", "config": {}}, "moving_mean_initializer": {"class_name": "Zeros", "config": {}}, "moving_variance_initializer": {"class_name": "Ones", "config": {}}, "beta_regularizer": null, "gamma_regularizer": null, "beta_constraint": null, "gamma_constraint": null}, "inbound_nodes": [[["conv2d_217", 0, 0, {}]]]}, {"name": "batch_normalization_220", "class_name": "BatchNormalization", "config": {"name": "batch_normalization_220", "trainable": true, "dtype": "float32", "axis": 3, "momentum": 0.99, "epsilon": 0.001, "center": true, "scale": false, "beta_initializer": {"class_name": "Zeros", "config": {}}, "gamma_initializer": {"class_name": "Ones", "config": {}}, "moving_mean_initializer": {"class_name": "Zeros", "config": {}}, "moving_variance_initializer": {"class_name": "Ones", "config": {}}, "beta_regularizer": null, "gamma_regularizer": null, "beta_constraint": null, "gamma_constraint": null}, "inbound_nodes": [[["conv2d_220", 0, 0, {}]]]}, {"name": "activation_217", "class_name": "Activation", "config": {"name": "activation_217", "trainable": true, "dtype": "float32", "activation": "relu"}, "inbound_nodes": [[["batch_normalization_217", 0, 0, {}]]]}, {"name": "activation_220", "class_name": "Activation", "config": {"name": "activation_220", "trainable": true, "dtype": "float32", "activation": "relu"}, "inbound_nodes": [[["batch_normalization_220", 0, 0, {}]]]}, {"name": "conv2d_216", "class_name": "Conv2D", "config": {"name": "conv2d_216", "trainable": true, "dtype": "float32", "filters": 32, "kernel_size": [1, 1], "strides": [1, 1], "padding": "same", "data_format": "channels_last", "dilation_rate": [1, 1], "activation": "linear", "use_bias": false, "kernel_initializer": {"class_name": "VarianceScaling", "config": {"scale": 1.0, "mode": "fan_avg", "distribution": "uniform", "seed": null}}, "bias_initializer": {"class_name": "Zeros", "config": {}}, "kernel_regularizer": null, "bias_regularizer": null, "activity_regularizer": null, "kernel_constraint": null, "bias_constraint": null}, "inbound_nodes": [[["mixed_5b", 0, 0, {}]]]}, {"name": "conv2d_218", "class_name": "Conv2D", "config": {"name": "conv2d_218", "trainable": true, "dtype": "float32", "filters": 32, "kernel_size": [3, 3], "strides": [1, 1], "padding": "same", "data_format": "channels_last", "dilation_rate": [1, 1], "activation": "linear", "use_bias": false, "kernel_initializer": {"class_name": "VarianceScaling", "config": {"scale": 1.0, "mode": "fan_avg", "distribution": "uniform", "seed": null}}, "bias_initializer": {"class_name": "Zeros", "config": {}}, "kernel_regularizer": null, "bias_regularizer": null, "activity_regularizer": null, "kernel_constraint": null, "bias_constraint": null}, "inbound_nodes": [[["activation_217", 0, 0, {}]]]}, {"name": "conv2d_221", "class_name": "Conv2D", "config": {"name": "conv2d_221", "trainable": true, "dtype": "float32", "filters": 64, "kernel_size": [3, 3], "strides": [1, 1], "padding": "same", "data_format": "channels_last", "dilation_rate": [1, 1], "activation": "linear", "use_bias": false, "kernel_initializer": {"class_name": "VarianceScaling", "config": {"scale": 1.0, "mode": "fan_avg", "distribution": "uniform", "seed": null}}, "bias_initializer": {"class_name": "Zeros", "config": {}}, "kernel_regularizer": null, "bias_regularizer": null, "activity_regularizer": null, "kernel_constraint": null, "bias_constraint": null}, "inbound_nodes": [[["activation_220", 0, 0, {}]]]}, {"name": "batch_normalization_216", "class_name": "BatchNormalization", "config": {"name": "batch_normalization_216", "trainable": true, "dtype": "float32", "axis": 3, "momentum": 0.99, "epsilon": 0.001, "center": true, "scale": false, "beta_initializer": {"class_name": "Zeros", "config": {}}, "gamma_initializer": {"class_name": "Ones", "config": {}}, "moving_mean_initializer": {"class_name": "Zeros", "config": {}}, "moving_variance_initializer": {"class_name": "Ones", "config": {}}, "beta_regularizer": null, "gamma_regularizer": null, "beta_constraint": null, "gamma_constraint": null}, "inbound_nodes": [[["conv2d_216", 0, 0, {}]]]}, {"name": "batch_normalization_218", "class_name": "BatchNormalization", "config": {"name": "batch_normalization_218", "trainable": true, "dtype": "float32", "axis": 3, "momentum": 0.99, "epsilon": 0.001, "center": true, "scale": false, "beta_initializer": {"class_name": "Zeros", "config": {}}, "gamma_initializer": {"class_name": "Ones", "config": {}}, "moving_mean_initializer": {"class_name": "Zeros", "config": {}}, "moving_variance_initializer": {"class_name": "Ones", "config": {}}, "beta_regularizer": null, "gamma_regularizer": null, "beta_constraint": null, "gamma_constraint": null}, "inbound_nodes": [[["conv2d_218", 0, 0, {}]]]}, {"name": "batch_normalization_221", "class_name": "BatchNormalization", "config": {"name": "batch_normalization_221", "trainable": true, "dtype": "float32", "axis": 3, "momentum": 0.99, "epsilon": 0.001, "center": true, "scale": false, "beta_initializer": {"class_name": "Zeros", "config": {}}, "gamma_initializer": {"class_name": "Ones", "config": {}}, "moving_mean_initializer": {"class_name": "Zeros", "config": {}}, "moving_variance_initializer": {"class_name": "Ones", "config": {}}, "beta_regularizer": null, "gamma_regularizer": null, "beta_constraint": null, "gamma_constraint": null}, "inbound_nodes": [[["conv2d_221", 0, 0, {}]]]}, {"name": "activation_216", "class_name": "Activation", "config": {"name": "activation_216", "trainable": true, "dtype": "float32", "activation": "relu"}, "inbound_nodes": [[["batch_normalization_216", 0, 0, {}]]]}, {"name": "activation_218", "class_name": "Activation", "config": {"name": "activation_218", "trainable": true, "dtype": "float32", "activation": "relu"}, "inbound_nodes": [[["batch_normalization_218", 0, 0, {}]]]}, {"name": "activation_221", "class_name": "Activation", "config": {"name": "activation_221", "trainable": true, "dtype": "float32", "activation": "relu"}, "inbound_nodes": [[["batch_normalization_221", 0, 0, {}]]]}, {"name": "block35_1_mixed", "class_name": "Concatenate", "config": {"name": "block35_1_mixed", "trainable": true, "dtype": "float32", "axis": 3}, "inbound_nodes": [[["activation_216", 0, 0, {}], ["activation_218", 0, 0, {}], ["activation_221", 0, 0, {}]]]}, {"name": "block35_1_conv", "class_name": "Conv2D", "config": {"name": "block35_1_conv", "trainable": true, "dtype": "float32", "filters": 320, "kernel_size": [1, 1], "strides": [1, 1], "padding": "same", "data_format": "channels_last", "dilation_rate": [1, 1], "activation": "linear", "use_bias": true, "kernel_initializer": {"class_name": "VarianceScaling", "config": {"scale": 1.0, "mode": "fan_avg", "distribution": "uniform", "seed": null}}, "bias_initializer": {"class_name": "Zeros", "config": {}}, "kernel_regularizer": null, "bias_regularizer": null, "activity_regularizer": null, "kernel_constraint": null, "bias_constraint": null}, "inbound_nodes": [[["block35_1_mixed", 0, 0, {}]]]}, {"name": "block35_1", "class_name": "Lambda", "config": {"name": "block35_1", "trainable": true, "dtype": "float32", "function": ["4wIAAAAAAAAAAgAAAAMAAABTAAAAcxQAAAB8AGQBGQB8AGQCGQB8ARQAFwBTACkDTukAAAAA6QEA\nAACpACkC2gZpbnB1dHPaBXNjYWxlcgMAAAByAwAAAPpQL3Vzci9sb2NhbC9saWIvcHl0aG9uMy42\nL2Rpc3QtcGFja2FnZXMva2VyYXNfYXBwbGljYXRpb25zL2luY2VwdGlvbl9yZXNuZXRfdjIucHna\nCDxsYW1iZGE+qAAAAPMAAAAA\n", null, null], "function_type": "lambda", "output_shape": [44, 60, 320], "output_shape_type": "raw", "arguments": {"scale": 0.17}}, "inbound_nodes": [[["mixed_5b", 0, 0, {}], ["block35_1_conv", 0, 0, {}]]]}, {"name": "block35_1_ac", "class_name": "Activation", "config": {"name": "block35_1_ac", "trainable": true, "dtype": "float32", "activation": "relu"}, "inbound_nodes": [[["block35_1", 0, 0, {}]]]}, {"name": "conv2d_225", "class_name": "Conv2D", "config": {"name": "conv2d_225", "trainable": true, "dtype": "float32", "filters": 32, "kernel_size": [1, 1], "strides": [1, 1], "padding": "same", "data_format": "channels_last", "dilation_rate": [1, 1], "activation": "linear", "use_bias": false, "kernel_initializer": {"class_name": "VarianceScaling", "config": {"scale": 1.0, "mode": "fan_avg", "distribution": "uniform", "seed": null}}, "bias_initializer": {"class_name": "Zeros", "config": {}}, "kernel_regularizer": null, "bias_regularizer": null, "activity_regularizer": null, "kernel_constraint": null, "bias_constraint": null}, "inbound_nodes": [[["block35_1_ac", 0, 0, {}]]]}, {"name": "batch_normalization_225", "class_name": "BatchNormalization", "config": {"name": "batch_normalization_225", "trainable": true, "dtype": "float32", "axis": 3, "momentum": 0.99, "epsilon": 0.001, "center": true, "scale": false, "beta_initializer": {"class_name": "Zeros", "config": {}}, "gamma_initializer": {"class_name": "Ones", "config": {}}, "moving_mean_initializer": {"class_name": "Zeros", "config": {}}, "moving_variance_initializer": {"class_name": "Ones", "config": {}}, "beta_regularizer": null, "gamma_regularizer": null, "beta_constraint": null, "gamma_constraint": null}, "inbound_nodes": [[["conv2d_225", 0, 0, {}]]]}, {"name": "activation_225", "class_name": "Activation", "config": {"name": "activation_225", "trainable": true, "dtype": "float32", "activation": "relu"}, "inbound_nodes": [[["batch_normalization_225", 0, 0, {}]]]}, {"name": "conv2d_223", "class_name": "Conv2D", "config": {"name": "conv2d_223", "trainable": true, "dtype": "float32", "filters": 32, "kernel_size": [1, 1], "strides": [1, 1], "padding": "same", "data_format": "channels_last", "dilation_rate": [1, 1], "activation": "linear", "use_bias": false, "kernel_initializer": {"class_name": "VarianceScaling", "config": {"scale": 1.0, "mode": "fan_avg", "distribution": "uniform", "seed": null}}, "bias_initializer": {"class_name": "Zeros", "config": {}}, "kernel_regularizer": null, "bias_regularizer": null, "activity_regularizer": null, "kernel_constraint": null, "bias_constraint": null}, "inbound_nodes": [[["block35_1_ac", 0, 0, {}]]]}, {"name": "conv2d_226", "class_name": "Conv2D", "config": {"name": "conv2d_226", "trainable": true, "dtype": "float32", "filters": 48, "kernel_size": [3, 3], "strides": [1, 1], "padding": "same", "data_format": "channels_last", "dilation_rate": [1, 1], "activation": "linear", "use_bias": false, "kernel_initializer": {"class_name": "VarianceScaling", "config": {"scale": 1.0, "mode": "fan_avg", "distribution": "uniform", "seed": null}}, "bias_initializer": {"class_name": "Zeros", "config": {}}, "kernel_regularizer": null, "bias_regularizer": null, "activity_regularizer": null, "kernel_constraint": null, "bias_constraint": null}, "inbound_nodes": [[["activation_225", 0, 0, {}]]]}, {"name": "batch_normalization_223", "class_name": "BatchNormalization", "config": {"name": "batch_normalization_223", "trainable": true, "dtype": "float32", "axis": 3, "momentum": 0.99, "epsilon": 0.001, "center": true, "scale": false, "beta_initializer": {"class_name": "Zeros", "config": {}}, "gamma_initializer": {"class_name": "Ones", "config": {}}, "moving_mean_initializer": {"class_name": "Zeros", "config": {}}, "moving_variance_initializer": {"class_name": "Ones", "config": {}}, "beta_regularizer": null, "gamma_regularizer": null, "beta_constraint": null, "gamma_constraint": null}, "inbound_nodes": [[["conv2d_223", 0, 0, {}]]]}, {"name": "batch_normalization_226", "class_name": "BatchNormalization", "config": {"name": "batch_normalization_226", "trainable": true, "dtype": "float32", "axis": 3, "momentum": 0.99, "epsilon": 0.001, "center": true, "scale": false, "beta_initializer": {"class_name": "Zeros", "config": {}}, "gamma_initializer": {"class_name": "Ones", "config": {}}, "moving_mean_initializer": {"class_name": "Zeros", "config": {}}, "moving_variance_initializer": {"class_name": "Ones", "config": {}}, "beta_regularizer": null, "gamma_regularizer": null, "beta_constraint": null, "gamma_constraint": null}, "inbound_nodes": [[["conv2d_226", 0, 0, {}]]]}, {"name": "activation_223", "class_name": "Activation", "config": {"name": "activation_223", "trainable": true, "dtype": "float32", "activation": "relu"}, "inbound_nodes": [[["batch_normalization_223", 0, 0, {}]]]}, {"name": "activation_226", "class_name": "Activation", "config": {"name": "activation_226", "trainable": true, "dtype": "float32", "activation": "relu"}, "inbound_nodes": [[["batch_normalization_226", 0, 0, {}]]]}, {"name": "conv2d_222", "class_name": "Conv2D", "config": {"name": "conv2d_222", "trainable": true, "dtype": "float32", "filters": 32, "kernel_size": [1, 1], "strides": [1, 1], "padding": "same", "data_format": "channels_last", "dilation_rate": [1, 1], "activation": "linear", "use_bias": false, "kernel_initializer": {"class_name": "VarianceScaling", "config": {"scale": 1.0, "mode": "fan_avg", "distribution": "uniform", "seed": null}}, "bias_initializer": {"class_name": "Zeros", "config": {}}, "kernel_regularizer": null, "bias_regularizer": null, "activity_regularizer": null, "kernel_constraint": null, "bias_constraint": null}, "inbound_nodes": [[["block35_1_ac", 0, 0, {}]]]}, {"name": "conv2d_224", "class_name": "Conv2D", "config": {"name": "conv2d_224", "trainable": true, "dtype": "float32", "filters": 32, "kernel_size": [3, 3], "strides": [1, 1], "padding": "same", "data_format": "channels_last", "dilation_rate": [1, 1], "activation": "linear", "use_bias": false, "kernel_initializer": {"class_name": "VarianceScaling", "config": {"scale": 1.0, "mode": "fan_avg", "distribution": "uniform", "seed": null}}, "bias_initializer": {"class_name": "Zeros", "config": {}}, "kernel_regularizer": null, "bias_regularizer": null, "activity_regularizer": null, "kernel_constraint": null, "bias_constraint": null}, "inbound_nodes": [[["activation_223", 0, 0, {}]]]}, {"name": "conv2d_227", "class_name": "Conv2D", "config": {"name": "conv2d_227", "trainable": true, "dtype": "float32", "filters": 64, "kernel_size": [3, 3], "strides": [1, 1], "padding": "same", "data_format": "channels_last", "dilation_rate": [1, 1], "activation": "linear", "use_bias": false, "kernel_initializer": {"class_name": "VarianceScaling", "config": {"scale": 1.0, "mode": "fan_avg", "distribution": "uniform", "seed": null}}, "bias_initializer": {"class_name": "Zeros", "config": {}}, "kernel_regularizer": null, "bias_regularizer": null, "activity_regularizer": null, "kernel_constraint": null, "bias_constraint": null}, "inbound_nodes": [[["activation_226", 0, 0, {}]]]}, {"name": "batch_normalization_222", "class_name": "BatchNormalization", "config": {"name": "batch_normalization_222", "trainable": true, "dtype": "float32", "axis": 3, "momentum": 0.99, "epsilon": 0.001, "center": true, "scale": false, "beta_initializer": {"class_name": "Zeros", "config": {}}, "gamma_initializer": {"class_name": "Ones", "config": {}}, "moving_mean_initializer": {"class_name": "Zeros", "config": {}}, "moving_variance_initializer": {"class_name": "Ones", "config": {}}, "beta_regularizer": null, "gamma_regularizer": null, "beta_constraint": null, "gamma_constraint": null}, "inbound_nodes": [[["conv2d_222", 0, 0, {}]]]}, {"name": "batch_normalization_224", "class_name": "BatchNormalization", "config": {"name": "batch_normalization_224", "trainable": true, "dtype": "float32", "axis": 3, "momentum": 0.99, "epsilon": 0.001, "center": true, "scale": false, "beta_initializer": {"class_name": "Zeros", "config": {}}, "gamma_initializer": {"class_name": "Ones", "config": {}}, "moving_mean_initializer": {"class_name": "Zeros", "config": {}}, "moving_variance_initializer": {"class_name": "Ones", "config": {}}, "beta_regularizer": null, "gamma_regularizer": null, "beta_constraint": null, "gamma_constraint": null}, "inbound_nodes": [[["conv2d_224", 0, 0, {}]]]}, {"name": "batch_normalization_227", "class_name": "BatchNormalization", "config": {"name": "batch_normalization_227", "trainable": true, "dtype": "float32", "axis": 3, "momentum": 0.99, "epsilon": 0.001, "center": true, "scale": false, "beta_initializer": {"class_name": "Zeros", "config": {}}, "gamma_initializer": {"class_name": "Ones", "config": {}}, "moving_mean_initializer": {"class_name": "Zeros", "config": {}}, "moving_variance_initializer": {"class_name": "Ones", "config": {}}, "beta_regularizer": null, "gamma_regularizer": null, "beta_constraint": null, "gamma_constraint": null}, "inbound_nodes": [[["conv2d_227", 0, 0, {}]]]}, {"name": "activation_222", "class_name": "Activation", "config": {"name": "activation_222", "trainable": true, "dtype": "float32", "activation": "relu"}, "inbound_nodes": [[["batch_normalization_222", 0, 0, {}]]]}, {"name": "activation_224", "class_name": "Activation", "config": {"name": "activation_224", "trainable": true, "dtype": "float32", "activation": "relu"}, "inbound_nodes": [[["batch_normalization_224", 0, 0, {}]]]}, {"name": "activation_227", "class_name": "Activation", "config": {"name": "activation_227", "trainable": true, "dtype": "float32", "activation": "relu"}, "inbound_nodes": [[["batch_normalization_227", 0, 0, {}]]]}, {"name": "block35_2_mixed", "class_name": "Concatenate", "config": {"name": "block35_2_mixed", "trainable": true, "dtype": "float32", "axis": 3}, "inbound_nodes": [[["activation_222", 0, 0, {}], ["activation_224", 0, 0, {}], ["activation_227", 0, 0, {}]]]}, {"name": "block35_2_conv", "class_name": "Conv2D", "config": {"name": "block35_2_conv", "trainable": true, "dtype": "float32", "filters": 320, "kernel_size": [1, 1], "strides": [1, 1], "padding": "same", "data_format": "channels_last", "dilation_rate": [1, 1], "activation": "linear", "use_bias": true, "kernel_initializer": {"class_name": "VarianceScaling", "config": {"scale": 1.0, "mode": "fan_avg", "distribution": "uniform", "seed": null}}, "bias_initializer": {"class_name": "Zeros", "config": {}}, "kernel_regularizer": null, "bias_regularizer": null, "activity_regularizer": null, "kernel_constraint": null, "bias_constraint": null}, "inbound_nodes": [[["block35_2_mixed", 0, 0, {}]]]}, {"name": "block35_2", "class_name": "Lambda", "config": {"name": "block35_2", "trainable": true, "dtype": "float32", "function": ["4wIAAAAAAAAAAgAAAAMAAABTAAAAcxQAAAB8AGQBGQB8AGQCGQB8ARQAFwBTACkDTukAAAAA6QEA\nAACpACkC2gZpbnB1dHPaBXNjYWxlcgMAAAByAwAAAPpQL3Vzci9sb2NhbC9saWIvcHl0aG9uMy42\nL2Rpc3QtcGFja2FnZXMva2VyYXNfYXBwbGljYXRpb25zL2luY2VwdGlvbl9yZXNuZXRfdjIucHna\nCDxsYW1iZGE+qAAAAPMAAAAA\n", null, null], "function_type": "lambda", "output_shape": [44, 60, 320], "output_shape_type": "raw", "arguments": {"scale": 0.17}}, "inbound_nodes": [[["block35_1_ac", 0, 0, {}], ["block35_2_conv", 0, 0, {}]]]}, {"name": "block35_2_ac", "class_name": "Activation", "config": {"name": "block35_2_ac", "trainable": true, "dtype": "float32", "activation": "relu"}, "inbound_nodes": [[["block35_2", 0, 0, {}]]]}, {"name": "conv2d_231", "class_name": "Conv2D", "config": {"name": "conv2d_231", "trainable": true, "dtype": "float32", "filters": 32, "kernel_size": [1, 1], "strides": [1, 1], "padding": "same", "data_format": "channels_last", "dilation_rate": [1, 1], "activation": "linear", "use_bias": false, "kernel_initializer": {"class_name": "VarianceScaling", "config": {"scale": 1.0, "mode": "fan_avg", "distribution": "uniform", "seed": null}}, "bias_initializer": {"class_name": "Zeros", "config": {}}, "kernel_regularizer": null, "bias_regularizer": null, "activity_regularizer": null, "kernel_constraint": null, "bias_constraint": null}, "inbound_nodes": [[["block35_2_ac", 0, 0, {}]]]}, {"name": "batch_normalization_231", "class_name": "BatchNormalization", "config": {"name": "batch_normalization_231", "trainable": true, "dtype": "float32", "axis": 3, "momentum": 0.99, "epsilon": 0.001, "center": true, "scale": false, "beta_initializer": {"class_name": "Zeros", "config": {}}, "gamma_initializer": {"class_name": "Ones", "config": {}}, "moving_mean_initializer": {"class_name": "Zeros", "config": {}}, "moving_variance_initializer": {"class_name": "Ones", "config": {}}, "beta_regularizer": null, "gamma_regularizer": null, "beta_constraint": null, "gamma_constraint": null}, "inbound_nodes": [[["conv2d_231", 0, 0, {}]]]}, {"name": "activation_231", "class_name": "Activation", "config": {"name": "activation_231", "trainable": true, "dtype": "float32", "activation": "relu"}, "inbound_nodes": [[["batch_normalization_231", 0, 0, {}]]]}, {"name": "conv2d_229", "class_name": "Conv2D", "config": {"name": "conv2d_229", "trainable": true, "dtype": "float32", "filters": 32, "kernel_size": [1, 1], "strides": [1, 1], "padding": "same", "data_format": "channels_last", "dilation_rate": [1, 1], "activation": "linear", "use_bias": false, "kernel_initializer": {"class_name": "VarianceScaling", "config": {"scale": 1.0, "mode": "fan_avg", "distribution": "uniform", "seed": null}}, "bias_initializer": {"class_name": "Zeros", "config": {}}, "kernel_regularizer": null, "bias_regularizer": null, "activity_regularizer": null, "kernel_constraint": null, "bias_constraint": null}, "inbound_nodes": [[["block35_2_ac", 0, 0, {}]]]}, {"name": "conv2d_232", "class_name": "Conv2D", "config": {"name": "conv2d_232", "trainable": true, "dtype": "float32", "filters": 48, "kernel_size": [3, 3], "strides": [1, 1], "padding": "same", "data_format": "channels_last", "dilation_rate": [1, 1], "activation": "linear", "use_bias": false, "kernel_initializer": {"class_name": "VarianceScaling", "config": {"scale": 1.0, "mode": "fan_avg", "distribution": "uniform", "seed": null}}, "bias_initializer": {"class_name": "Zeros", "config": {}}, "kernel_regularizer": null, "bias_regularizer": null, "activity_regularizer": null, "kernel_constraint": null, "bias_constraint": null}, "inbound_nodes": [[["activation_231", 0, 0, {}]]]}, {"name": "batch_normalization_229", "class_name": "BatchNormalization", "config": {"name": "batch_normalization_229", "trainable": true, "dtype": "float32", "axis": 3, "momentum": 0.99, "epsilon": 0.001, "center": true, "scale": false, "beta_initializer": {"class_name": "Zeros", "config": {}}, "gamma_initializer": {"class_name": "Ones", "config": {}}, "moving_mean_initializer": {"class_name": "Zeros", "config": {}}, "moving_variance_initializer": {"class_name": "Ones", "config": {}}, "beta_regularizer": null, "gamma_regularizer": null, "beta_constraint": null, "gamma_constraint": null}, "inbound_nodes": [[["conv2d_229", 0, 0, {}]]]}, {"name": "batch_normalization_232", "class_name": "BatchNormalization", "config": {"name": "batch_normalization_232", "trainable": true, "dtype": "float32", "axis": 3, "momentum": 0.99, "epsilon": 0.001, "center": true, "scale": false, "beta_initializer": {"class_name": "Zeros", "config": {}}, "gamma_initializer": {"class_name": "Ones", "config": {}}, "moving_mean_initializer": {"class_name": "Zeros", "config": {}}, "moving_variance_initializer": {"class_name": "Ones", "config": {}}, "beta_regularizer": null, "gamma_regularizer": null, "beta_constraint": null, "gamma_constraint": null}, "inbound_nodes": [[["conv2d_232", 0, 0, {}]]]}, {"name": "activation_229", "class_name": "Activation", "config": {"name": "activation_229", "trainable": true, "dtype": "float32", "activation": "relu"}, "inbound_nodes": [[["batch_normalization_229", 0, 0, {}]]]}, {"name": "activation_232", "class_name": "Activation", "config": {"name": "activation_232", "trainable": true, "dtype": "float32", "activation": "relu"}, "inbound_nodes": [[["batch_normalization_232", 0, 0, {}]]]}, {"name": "conv2d_228", "class_name": "Conv2D", "config": {"name": "conv2d_228", "trainable": true, "dtype": "float32", "filters": 32, "kernel_size": [1, 1], "strides": [1, 1], "padding": "same", "data_format": "channels_last", "dilation_rate": [1, 1], "activation": "linear", "use_bias": false, "kernel_initializer": {"class_name": "VarianceScaling", "config": {"scale": 1.0, "mode": "fan_avg", "distribution": "uniform", "seed": null}}, "bias_initializer": {"class_name": "Zeros", "config": {}}, "kernel_regularizer": null, "bias_regularizer": null, "activity_regularizer": null, "kernel_constraint": null, "bias_constraint": null}, "inbound_nodes": [[["block35_2_ac", 0, 0, {}]]]}, {"name": "conv2d_230", "class_name": "Conv2D", "config": {"name": "conv2d_230", "trainable": true, "dtype": "float32", "filters": 32, "kernel_size": [3, 3], "strides": [1, 1], "padding": "same", "data_format": "channels_last", "dilation_rate": [1, 1], "activation": "linear", "use_bias": false, "kernel_initializer": {"class_name": "VarianceScaling", "config": {"scale": 1.0, "mode": "fan_avg", "distribution": "uniform", "seed": null}}, "bias_initializer": {"class_name": "Zeros", "config": {}}, "kernel_regularizer": null, "bias_regularizer": null, "activity_regularizer": null, "kernel_constraint": null, "bias_constraint": null}, "inbound_nodes": [[["activation_229", 0, 0, {}]]]}, {"name": "conv2d_233", "class_name": "Conv2D", "config": {"name": "conv2d_233", "trainable": true, "dtype": "float32", "filters": 64, "kernel_size": [3, 3], "strides": [1, 1], "padding": "same", "data_format": "channels_last", "dilation_rate": [1, 1], "activation": "linear", "use_bias": false, "kernel_initializer": {"class_name": "VarianceScaling", "config": {"scale": 1.0, "mode": "fan_avg", "distribution": "uniform", "seed": null}}, "bias_initializer": {"class_name": "Zeros", "config": {}}, "kernel_regularizer": null, "bias_regularizer": null, "activity_regularizer": null, "kernel_constraint": null, "bias_constraint": null}, "inbound_nodes": [[["activation_232", 0, 0, {}]]]}, {"name": "batch_normalization_228", "class_name": "BatchNormalization", "config": {"name": "batch_normalization_228", "trainable": true, "dtype": "float32", "axis": 3, "momentum": 0.99, "epsilon": 0.001, "center": true, "scale": false, "beta_initializer": {"class_name": "Zeros", "config": {}}, "gamma_initializer": {"class_name": "Ones", "config": {}}, "moving_mean_initializer": {"class_name": "Zeros", "config": {}}, "moving_variance_initializer": {"class_name": "Ones", "config": {}}, "beta_regularizer": null, "gamma_regularizer": null, "beta_constraint": null, "gamma_constraint": null}, "inbound_nodes": [[["conv2d_228", 0, 0, {}]]]}, {"name": "batch_normalization_230", "class_name": "BatchNormalization", "config": {"name": "batch_normalization_230", "trainable": true, "dtype": "float32", "axis": 3, "momentum": 0.99, "epsilon": 0.001, "center": true, "scale": false, "beta_initializer": {"class_name": "Zeros", "config": {}}, "gamma_initializer": {"class_name": "Ones", "config": {}}, "moving_mean_initializer": {"class_name": "Zeros", "config": {}}, "moving_variance_initializer": {"class_name": "Ones", "config": {}}, "beta_regularizer": null, "gamma_regularizer": null, "beta_constraint": null, "gamma_constraint": null}, "inbound_nodes": [[["conv2d_230", 0, 0, {}]]]}, {"name": "batch_normalization_233", "class_name": "BatchNormalization", "config": {"name": "batch_normalization_233", "trainable": true, "dtype": "float32", "axis": 3, "momentum": 0.99, "epsilon": 0.001, "center": true, "scale": false, "beta_initializer": {"class_name": "Zeros", "config": {}}, "gamma_initializer": {"class_name": "Ones", "config": {}}, "moving_mean_initializer": {"class_name": "Zeros", "config": {}}, "moving_variance_initializer": {"class_name": "Ones", "config": {}}, "beta_regularizer": null, "gamma_regularizer": null, "beta_constraint": null, "gamma_constraint": null}, "inbound_nodes": [[["conv2d_233", 0, 0, {}]]]}, {"name": "activation_228", "class_name": "Activation", "config": {"name": "activation_228", "trainable": true, "dtype": "float32", "activation": "relu"}, "inbound_nodes": [[["batch_normalization_228", 0, 0, {}]]]}, {"name": "activation_230", "class_name": "Activation", "config": {"name": "activation_230", "trainable": true, "dtype": "float32", "activation": "relu"}, "inbound_nodes": [[["batch_normalization_230", 0, 0, {}]]]}, {"name": "activation_233", "class_name": "Activation", "config": {"name": "activation_233", "trainable": true, "dtype": "float32", "activation": "relu"}, "inbound_nodes": [[["batch_normalization_233", 0, 0, {}]]]}, {"name": "block35_3_mixed", "class_name": "Concatenate", "config": {"name": "block35_3_mixed", "trainable": true, "dtype": "float32", "axis": 3}, "inbound_nodes": [[["activation_228", 0, 0, {}], ["activation_230", 0, 0, {}], ["activation_233", 0, 0, {}]]]}, {"name": "block35_3_conv", "class_name": "Conv2D", "config": {"name": "block35_3_conv", "trainable": true, "dtype": "float32", "filters": 320, "kernel_size": [1, 1], "strides": [1, 1], "padding": "same", "data_format": "channels_last", "dilation_rate": [1, 1], "activation": "linear", "use_bias": true, "kernel_initializer": {"class_name": "VarianceScaling", "config": {"scale": 1.0, "mode": "fan_avg", "distribution": "uniform", "seed": null}}, "bias_initializer": {"class_name": "Zeros", "config": {}}, "kernel_regularizer": null, "bias_regularizer": null, "activity_regularizer": null, "kernel_constraint": null, "bias_constraint": null}, "inbound_nodes": [[["block35_3_mixed", 0, 0, {}]]]}, {"name": "block35_3", "class_name": "Lambda", "config": {"name": "block35_3", "trainable": true, "dtype": "float32", "function": ["4wIAAAAAAAAAAgAAAAMAAABTAAAAcxQAAAB8AGQBGQB8AGQCGQB8ARQAFwBTACkDTukAAAAA6QEA\nAACpACkC2gZpbnB1dHPaBXNjYWxlcgMAAAByAwAAAPpQL3Vzci9sb2NhbC9saWIvcHl0aG9uMy42\nL2Rpc3QtcGFja2FnZXMva2VyYXNfYXBwbGljYXRpb25zL2luY2VwdGlvbl9yZXNuZXRfdjIucHna\nCDxsYW1iZGE+qAAAAPMAAAAA\n", null, null], "function_type": "lambda", "output_shape": [44, 60, 320], "output_shape_type": "raw", "arguments": {"scale": 0.17}}, "inbound_nodes": [[["block35_2_ac", 0, 0, {}], ["block35_3_conv", 0, 0, {}]]]}, {"name": "block35_3_ac", "class_name": "Activation", "config": {"name": "block35_3_ac", "trainable": true, "dtype": "float32", "activation": "relu"}, "inbound_nodes": [[["block35_3", 0, 0, {}]]]}, {"name": "conv2d_237", "class_name": "Conv2D", "config": {"name": "conv2d_237", "trainable": true, "dtype": "float32", "filters": 32, "kernel_size": [1, 1], "strides": [1, 1], "padding": "same", "data_format": "channels_last", "dilation_rate": [1, 1], "activation": "linear", "use_bias": false, "kernel_initializer": {"class_name": "VarianceScaling", "config": {"scale": 1.0, "mode": "fan_avg", "distribution": "uniform", "seed": null}}, "bias_initializer": {"class_name": "Zeros", "config": {}}, "kernel_regularizer": null, "bias_regularizer": null, "activity_regularizer": null, "kernel_constraint": null, "bias_constraint": null}, "inbound_nodes": [[["block35_3_ac", 0, 0, {}]]]}, {"name": "batch_normalization_237", "class_name": "BatchNormalization", "config": {"name": "batch_normalization_237", "trainable": true, "dtype": "float32", "axis": 3, "momentum": 0.99, "epsilon": 0.001, "center": true, "scale": false, "beta_initializer": {"class_name": "Zeros", "config": {}}, "gamma_initializer": {"class_name": "Ones", "config": {}}, "moving_mean_initializer": {"class_name": "Zeros", "config": {}}, "moving_variance_initializer": {"class_name": "Ones", "config": {}}, "beta_regularizer": null, "gamma_regularizer": null, "beta_constraint": null, "gamma_constraint": null}, "inbound_nodes": [[["conv2d_237", 0, 0, {}]]]}, {"name": "activation_237", "class_name": "Activation", "config": {"name": "activation_237", "trainable": true, "dtype": "float32", "activation": "relu"}, "inbound_nodes": [[["batch_normalization_237", 0, 0, {}]]]}, {"name": "conv2d_235", "class_name": "Conv2D", "config": {"name": "conv2d_235", "trainable": true, "dtype": "float32", "filters": 32, "kernel_size": [1, 1], "strides": [1, 1], "padding": "same", "data_format": "channels_last", "dilation_rate": [1, 1], "activation": "linear", "use_bias": false, "kernel_initializer": {"class_name": "VarianceScaling", "config": {"scale": 1.0, "mode": "fan_avg", "distribution": "uniform", "seed": null}}, "bias_initializer": {"class_name": "Zeros", "config": {}}, "kernel_regularizer": null, "bias_regularizer": null, "activity_regularizer": null, "kernel_constraint": null, "bias_constraint": null}, "inbound_nodes": [[["block35_3_ac", 0, 0, {}]]]}, {"name": "conv2d_238", "class_name": "Conv2D", "config": {"name": "conv2d_238", "trainable": true, "dtype": "float32", "filters": 48, "kernel_size": [3, 3], "strides": [1, 1], "padding": "same", "data_format": "channels_last", "dilation_rate": [1, 1], "activation": "linear", "use_bias": false, "kernel_initializer": {"class_name": "VarianceScaling", "config": {"scale": 1.0, "mode": "fan_avg", "distribution": "uniform", "seed": null}}, "bias_initializer": {"class_name": "Zeros", "config": {}}, "kernel_regularizer": null, "bias_regularizer": null, "activity_regularizer": null, "kernel_constraint": null, "bias_constraint": null}, "inbound_nodes": [[["activation_237", 0, 0, {}]]]}, {"name": "batch_normalization_235", "class_name": "BatchNormalization", "config": {"name": "batch_normalization_235", "trainable": true, "dtype": "float32", "axis": 3, "momentum": 0.99, "epsilon": 0.001, "center": true, "scale": false, "beta_initializer": {"class_name": "Zeros", "config": {}}, "gamma_initializer": {"class_name": "Ones", "config": {}}, "moving_mean_initializer": {"class_name": "Zeros", "config": {}}, "moving_variance_initializer": {"class_name": "Ones", "config": {}}, "beta_regularizer": null, "gamma_regularizer": null, "beta_constraint": null, "gamma_constraint": null}, "inbound_nodes": [[["conv2d_235", 0, 0, {}]]]}, {"name": "batch_normalization_238", "class_name": "BatchNormalization", "config": {"name": "batch_normalization_238", "trainable": true, "dtype": "float32", "axis": 3, "momentum": 0.99, "epsilon": 0.001, "center": true, "scale": false, "beta_initializer": {"class_name": "Zeros", "config": {}}, "gamma_initializer": {"class_name": "Ones", "config": {}}, "moving_mean_initializer": {"class_name": "Zeros", "config": {}}, "moving_variance_initializer": {"class_name": "Ones", "config": {}}, "beta_regularizer": null, "gamma_regularizer": null, "beta_constraint": null, "gamma_constraint": null}, "inbound_nodes": [[["conv2d_238", 0, 0, {}]]]}, {"name": "activation_235", "class_name": "Activation", "config": {"name": "activation_235", "trainable": true, "dtype": "float32", "activation": "relu"}, "inbound_nodes": [[["batch_normalization_235", 0, 0, {}]]]}, {"name": "activation_238", "class_name": "Activation", "config": {"name": "activation_238", "trainable": true, "dtype": "float32", "activation": "relu"}, "inbound_nodes": [[["batch_normalization_238", 0, 0, {}]]]}, {"name": "conv2d_234", "class_name": "Conv2D", "config": {"name": "conv2d_234", "trainable": true, "dtype": "float32", "filters": 32, "kernel_size": [1, 1], "strides": [1, 1], "padding": "same", "data_format": "channels_last", "dilation_rate": [1, 1], "activation": "linear", "use_bias": false, "kernel_initializer": {"class_name": "VarianceScaling", "config": {"scale": 1.0, "mode": "fan_avg", "distribution": "uniform", "seed": null}}, "bias_initializer": {"class_name": "Zeros", "config": {}}, "kernel_regularizer": null, "bias_regularizer": null, "activity_regularizer": null, "kernel_constraint": null, "bias_constraint": null}, "inbound_nodes": [[["block35_3_ac", 0, 0, {}]]]}, {"name": "conv2d_236", "class_name": "Conv2D", "config": {"name": "conv2d_236", "trainable": true, "dtype": "float32", "filters": 32, "kernel_size": [3, 3], "strides": [1, 1], "padding": "same", "data_format": "channels_last", "dilation_rate": [1, 1], "activation": "linear", "use_bias": false, "kernel_initializer": {"class_name": "VarianceScaling", "config": {"scale": 1.0, "mode": "fan_avg", "distribution": "uniform", "seed": null}}, "bias_initializer": {"class_name": "Zeros", "config": {}}, "kernel_regularizer": null, "bias_regularizer": null, "activity_regularizer": null, "kernel_constraint": null, "bias_constraint": null}, "inbound_nodes": [[["activation_235", 0, 0, {}]]]}, {"name": "conv2d_239", "class_name": "Conv2D", "config": {"name": "conv2d_239", "trainable": true, "dtype": "float32", "filters": 64, "kernel_size": [3, 3], "strides": [1, 1], "padding": "same", "data_format": "channels_last", "dilation_rate": [1, 1], "activation": "linear", "use_bias": false, "kernel_initializer": {"class_name": "VarianceScaling", "config": {"scale": 1.0, "mode": "fan_avg", "distribution": "uniform", "seed": null}}, "bias_initializer": {"class_name": "Zeros", "config": {}}, "kernel_regularizer": null, "bias_regularizer": null, "activity_regularizer": null, "kernel_constraint": null, "bias_constraint": null}, "inbound_nodes": [[["activation_238", 0, 0, {}]]]}, {"name": "batch_normalization_234", "class_name": "BatchNormalization", "config": {"name": "batch_normalization_234", "trainable": true, "dtype": "float32", "axis": 3, "momentum": 0.99, "epsilon": 0.001, "center": true, "scale": false, "beta_initializer": {"class_name": "Zeros", "config": {}}, "gamma_initializer": {"class_name": "Ones", "config": {}}, "moving_mean_initializer": {"class_name": "Zeros", "config": {}}, "moving_variance_initializer": {"class_name": "Ones", "config": {}}, "beta_regularizer": null, "gamma_regularizer": null, "beta_constraint": null, "gamma_constraint": null}, "inbound_nodes": [[["conv2d_234", 0, 0, {}]]]}, {"name": "batch_normalization_236", "class_name": "BatchNormalization", "config": {"name": "batch_normalization_236", "trainable": true, "dtype": "float32", "axis": 3, "momentum": 0.99, "epsilon": 0.001, "center": true, "scale": false, "beta_initializer": {"class_name": "Zeros", "config": {}}, "gamma_initializer": {"class_name": "Ones", "config": {}}, "moving_mean_initializer": {"class_name": "Zeros", "config": {}}, "moving_variance_initializer": {"class_name": "Ones", "config": {}}, "beta_regularizer": null, "gamma_regularizer": null, "beta_constraint": null, "gamma_constraint": null}, "inbound_nodes": [[["conv2d_236", 0, 0, {}]]]}, {"name": "batch_normalization_239", "class_name": "BatchNormalization", "config": {"name": "batch_normalization_239", "trainable": true, "dtype": "float32", "axis": 3, "momentum": 0.99, "epsilon": 0.001, "center": true, "scale": false, "beta_initializer": {"class_name": "Zeros", "config": {}}, "gamma_initializer": {"class_name": "Ones", "config": {}}, "moving_mean_initializer": {"class_name": "Zeros", "config": {}}, "moving_variance_initializer": {"class_name": "Ones", "config": {}}, "beta_regularizer": null, "gamma_regularizer": null, "beta_constraint": null, "gamma_constraint": null}, "inbound_nodes": [[["conv2d_239", 0, 0, {}]]]}, {"name": "activation_234", "class_name": "Activation", "config": {"name": "activation_234", "trainable": true, "dtype": "float32", "activation": "relu"}, "inbound_nodes": [[["batch_normalization_234", 0, 0, {}]]]}, {"name": "activation_236", "class_name": "Activation", "config": {"name": "activation_236", "trainable": true, "dtype": "float32", "activation": "relu"}, "inbound_nodes": [[["batch_normalization_236", 0, 0, {}]]]}, {"name": "activation_239", "class_name": "Activation", "config": {"name": "activation_239", "trainable": true, "dtype": "float32", "activation": "relu"}, "inbound_nodes": [[["batch_normalization_239", 0, 0, {}]]]}, {"name": "block35_4_mixed", "class_name": "Concatenate", "config": {"name": "block35_4_mixed", "trainable": true, "dtype": "float32", "axis": 3}, "inbound_nodes": [[["activation_234", 0, 0, {}], ["activation_236", 0, 0, {}], ["activation_239", 0, 0, {}]]]}, {"name": "block35_4_conv", "class_name": "Conv2D", "config": {"name": "block35_4_conv", "trainable": true, "dtype": "float32", "filters": 320, "kernel_size": [1, 1], "strides": [1, 1], "padding": "same", "data_format": "channels_last", "dilation_rate": [1, 1], "activation": "linear", "use_bias": true, "kernel_initializer": {"class_name": "VarianceScaling", "config": {"scale": 1.0, "mode": "fan_avg", "distribution": "uniform", "seed": null}}, "bias_initializer": {"class_name": "Zeros", "config": {}}, "kernel_regularizer": null, "bias_regularizer": null, "activity_regularizer": null, "kernel_constraint": null, "bias_constraint": null}, "inbound_nodes": [[["block35_4_mixed", 0, 0, {}]]]}, {"name": "block35_4", "class_name": "Lambda", "config": {"name": "block35_4", "trainable": true, "dtype": "float32", "function": ["4wIAAAAAAAAAAgAAAAMAAABTAAAAcxQAAAB8AGQBGQB8AGQCGQB8ARQAFwBTACkDTukAAAAA6QEA\nAACpACkC2gZpbnB1dHPaBXNjYWxlcgMAAAByAwAAAPpQL3Vzci9sb2NhbC9saWIvcHl0aG9uMy42\nL2Rpc3QtcGFja2FnZXMva2VyYXNfYXBwbGljYXRpb25zL2luY2VwdGlvbl9yZXNuZXRfdjIucHna\nCDxsYW1iZGE+qAAAAPMAAAAA\n", null, null], "function_type": "lambda", "output_shape": [44, 60, 320], "output_shape_type": "raw", "arguments": {"scale": 0.17}}, "inbound_nodes": [[["block35_3_ac", 0, 0, {}], ["block35_4_conv", 0, 0, {}]]]}, {"name": "block35_4_ac", "class_name": "Activation", "config": {"name": "block35_4_ac", "trainable": true, "dtype": "float32", "activation": "relu"}, "inbound_nodes": [[["block35_4", 0, 0, {}]]]}, {"name": "conv2d_243", "class_name": "Conv2D", "config": {"name": "conv2d_243", "trainable": true, "dtype": "float32", "filters": 32, "kernel_size": [1, 1], "strides": [1, 1], "padding": "same", "data_format": "channels_last", "dilation_rate": [1, 1], "activation": "linear", "use_bias": false, "kernel_initializer": {"class_name": "VarianceScaling", "config": {"scale": 1.0, "mode": "fan_avg", "distribution": "uniform", "seed": null}}, "bias_initializer": {"class_name": "Zeros", "config": {}}, "kernel_regularizer": null, "bias_regularizer": null, "activity_regularizer": null, "kernel_constraint": null, "bias_constraint": null}, "inbound_nodes": [[["block35_4_ac", 0, 0, {}]]]}, {"name": "batch_normalization_243", "class_name": "BatchNormalization", "config": {"name": "batch_normalization_243", "trainable": true, "dtype": "float32", "axis": 3, "momentum": 0.99, "epsilon": 0.001, "center": true, "scale": false, "beta_initializer": {"class_name": "Zeros", "config": {}}, "gamma_initializer": {"class_name": "Ones", "config": {}}, "moving_mean_initializer": {"class_name": "Zeros", "config": {}}, "moving_variance_initializer": {"class_name": "Ones", "config": {}}, "beta_regularizer": null, "gamma_regularizer": null, "beta_constraint": null, "gamma_constraint": null}, "inbound_nodes": [[["conv2d_243", 0, 0, {}]]]}, {"name": "activation_243", "class_name": "Activation", "config": {"name": "activation_243", "trainable": true, "dtype": "float32", "activation": "relu"}, "inbound_nodes": [[["batch_normalization_243", 0, 0, {}]]]}, {"name": "conv2d_241", "class_name": "Conv2D", "config": {"name": "conv2d_241", "trainable": true, "dtype": "float32", "filters": 32, "kernel_size": [1, 1], "strides": [1, 1], "padding": "same", "data_format": "channels_last", "dilation_rate": [1, 1], "activation": "linear", "use_bias": false, "kernel_initializer": {"class_name": "VarianceScaling", "config": {"scale": 1.0, "mode": "fan_avg", "distribution": "uniform", "seed": null}}, "bias_initializer": {"class_name": "Zeros", "config": {}}, "kernel_regularizer": null, "bias_regularizer": null, "activity_regularizer": null, "kernel_constraint": null, "bias_constraint": null}, "inbound_nodes": [[["block35_4_ac", 0, 0, {}]]]}, {"name": "conv2d_244", "class_name": "Conv2D", "config": {"name": "conv2d_244", "trainable": true, "dtype": "float32", "filters": 48, "kernel_size": [3, 3], "strides": [1, 1], "padding": "same", "data_format": "channels_last", "dilation_rate": [1, 1], "activation": "linear", "use_bias": false, "kernel_initializer": {"class_name": "VarianceScaling", "config": {"scale": 1.0, "mode": "fan_avg", "distribution": "uniform", "seed": null}}, "bias_initializer": {"class_name": "Zeros", "config": {}}, "kernel_regularizer": null, "bias_regularizer": null, "activity_regularizer": null, "kernel_constraint": null, "bias_constraint": null}, "inbound_nodes": [[["activation_243", 0, 0, {}]]]}, {"name": "batch_normalization_241", "class_name": "BatchNormalization", "config": {"name": "batch_normalization_241", "trainable": true, "dtype": "float32", "axis": 3, "momentum": 0.99, "epsilon": 0.001, "center": true, "scale": false, "beta_initializer": {"class_name": "Zeros", "config": {}}, "gamma_initializer": {"class_name": "Ones", "config": {}}, "moving_mean_initializer": {"class_name": "Zeros", "config": {}}, "moving_variance_initializer": {"class_name": "Ones", "config": {}}, "beta_regularizer": null, "gamma_regularizer": null, "beta_constraint": null, "gamma_constraint": null}, "inbound_nodes": [[["conv2d_241", 0, 0, {}]]]}, {"name": "batch_normalization_244", "class_name": "BatchNormalization", "config": {"name": "batch_normalization_244", "trainable": true, "dtype": "float32", "axis": 3, "momentum": 0.99, "epsilon": 0.001, "center": true, "scale": false, "beta_initializer": {"class_name": "Zeros", "config": {}}, "gamma_initializer": {"class_name": "Ones", "config": {}}, "moving_mean_initializer": {"class_name": "Zeros", "config": {}}, "moving_variance_initializer": {"class_name": "Ones", "config": {}}, "beta_regularizer": null, "gamma_regularizer": null, "beta_constraint": null, "gamma_constraint": null}, "inbound_nodes": [[["conv2d_244", 0, 0, {}]]]}, {"name": "activation_241", "class_name": "Activation", "config": {"name": "activation_241", "trainable": true, "dtype": "float32", "activation": "relu"}, "inbound_nodes": [[["batch_normalization_241", 0, 0, {}]]]}, {"name": "activation_244", "class_name": "Activation", "config": {"name": "activation_244", "trainable": true, "dtype": "float32", "activation": "relu"}, "inbound_nodes": [[["batch_normalization_244", 0, 0, {}]]]}, {"name": "conv2d_240", "class_name": "Conv2D", "config": {"name": "conv2d_240", "trainable": true, "dtype": "float32", "filters": 32, "kernel_size": [1, 1], "strides": [1, 1], "padding": "same", "data_format": "channels_last", "dilation_rate": [1, 1], "activation": "linear", "use_bias": false, "kernel_initializer": {"class_name": "VarianceScaling", "config": {"scale": 1.0, "mode": "fan_avg", "distribution": "uniform", "seed": null}}, "bias_initializer": {"class_name": "Zeros", "config": {}}, "kernel_regularizer": null, "bias_regularizer": null, "activity_regularizer": null, "kernel_constraint": null, "bias_constraint": null}, "inbound_nodes": [[["block35_4_ac", 0, 0, {}]]]}, {"name": "conv2d_242", "class_name": "Conv2D", "config": {"name": "conv2d_242", "trainable": true, "dtype": "float32", "filters": 32, "kernel_size": [3, 3], "strides": [1, 1], "padding": "same", "data_format": "channels_last", "dilation_rate": [1, 1], "activation": "linear", "use_bias": false, "kernel_initializer": {"class_name": "VarianceScaling", "config": {"scale": 1.0, "mode": "fan_avg", "distribution": "uniform", "seed": null}}, "bias_initializer": {"class_name": "Zeros", "config": {}}, "kernel_regularizer": null, "bias_regularizer": null, "activity_regularizer": null, "kernel_constraint": null, "bias_constraint": null}, "inbound_nodes": [[["activation_241", 0, 0, {}]]]}, {"name": "conv2d_245", "class_name": "Conv2D", "config": {"name": "conv2d_245", "trainable": true, "dtype": "float32", "filters": 64, "kernel_size": [3, 3], "strides": [1, 1], "padding": "same", "data_format": "channels_last", "dilation_rate": [1, 1], "activation": "linear", "use_bias": false, "kernel_initializer": {"class_name": "VarianceScaling", "config": {"scale": 1.0, "mode": "fan_avg", "distribution": "uniform", "seed": null}}, "bias_initializer": {"class_name": "Zeros", "config": {}}, "kernel_regularizer": null, "bias_regularizer": null, "activity_regularizer": null, "kernel_constraint": null, "bias_constraint": null}, "inbound_nodes": [[["activation_244", 0, 0, {}]]]}, {"name": "batch_normalization_240", "class_name": "BatchNormalization", "config": {"name": "batch_normalization_240", "trainable": true, "dtype": "float32", "axis": 3, "momentum": 0.99, "epsilon": 0.001, "center": true, "scale": false, "beta_initializer": {"class_name": "Zeros", "config": {}}, "gamma_initializer": {"class_name": "Ones", "config": {}}, "moving_mean_initializer": {"class_name": "Zeros", "config": {}}, "moving_variance_initializer": {"class_name": "Ones", "config": {}}, "beta_regularizer": null, "gamma_regularizer": null, "beta_constraint": null, "gamma_constraint": null}, "inbound_nodes": [[["conv2d_240", 0, 0, {}]]]}, {"name": "batch_normalization_242", "class_name": "BatchNormalization", "config": {"name": "batch_normalization_242", "trainable": true, "dtype": "float32", "axis": 3, "momentum": 0.99, "epsilon": 0.001, "center": true, "scale": false, "beta_initializer": {"class_name": "Zeros", "config": {}}, "gamma_initializer": {"class_name": "Ones", "config": {}}, "moving_mean_initializer": {"class_name": "Zeros", "config": {}}, "moving_variance_initializer": {"class_name": "Ones", "config": {}}, "beta_regularizer": null, "gamma_regularizer": null, "beta_constraint": null, "gamma_constraint": null}, "inbound_nodes": [[["conv2d_242", 0, 0, {}]]]}, {"name": "batch_normalization_245", "class_name": "BatchNormalization", "config": {"name": "batch_normalization_245", "trainable": true, "dtype": "float32", "axis": 3, "momentum": 0.99, "epsilon": 0.001, "center": true, "scale": false, "beta_initializer": {"class_name": "Zeros", "config": {}}, "gamma_initializer": {"class_name": "Ones", "config": {}}, "moving_mean_initializer": {"class_name": "Zeros", "config": {}}, "moving_variance_initializer": {"class_name": "Ones", "config": {}}, "beta_regularizer": null, "gamma_regularizer": null, "beta_constraint": null, "gamma_constraint": null}, "inbound_nodes": [[["conv2d_245", 0, 0, {}]]]}, {"name": "activation_240", "class_name": "Activation", "config": {"name": "activation_240", "trainable": true, "dtype": "float32", "activation": "relu"}, "inbound_nodes": [[["batch_normalization_240", 0, 0, {}]]]}, {"name": "activation_242", "class_name": "Activation", "config": {"name": "activation_242", "trainable": true, "dtype": "float32", "activation": "relu"}, "inbound_nodes": [[["batch_normalization_242", 0, 0, {}]]]}, {"name": "activation_245", "class_name": "Activation", "config": {"name": "activation_245", "trainable": true, "dtype": "float32", "activation": "relu"}, "inbound_nodes": [[["batch_normalization_245", 0, 0, {}]]]}, {"name": "block35_5_mixed", "class_name": "Concatenate", "config": {"name": "block35_5_mixed", "trainable": true, "dtype": "float32", "axis": 3}, "inbound_nodes": [[["activation_240", 0, 0, {}], ["activation_242", 0, 0, {}], ["activation_245", 0, 0, {}]]]}, {"name": "block35_5_conv", "class_name": "Conv2D", "config": {"name": "block35_5_conv", "trainable": true, "dtype": "float32", "filters": 320, "kernel_size": [1, 1], "strides": [1, 1], "padding": "same", "data_format": "channels_last", "dilation_rate": [1, 1], "activation": "linear", "use_bias": true, "kernel_initializer": {"class_name": "VarianceScaling", "config": {"scale": 1.0, "mode": "fan_avg", "distribution": "uniform", "seed": null}}, "bias_initializer": {"class_name": "Zeros", "config": {}}, "kernel_regularizer": null, "bias_regularizer": null, "activity_regularizer": null, "kernel_constraint": null, "bias_constraint": null}, "inbound_nodes": [[["block35_5_mixed", 0, 0, {}]]]}, {"name": "block35_5", "class_name": "Lambda", "config": {"name": "block35_5", "trainable": true, "dtype": "float32", "function": ["4wIAAAAAAAAAAgAAAAMAAABTAAAAcxQAAAB8AGQBGQB8AGQCGQB8ARQAFwBTACkDTukAAAAA6QEA\nAACpACkC2gZpbnB1dHPaBXNjYWxlcgMAAAByAwAAAPpQL3Vzci9sb2NhbC9saWIvcHl0aG9uMy42\nL2Rpc3QtcGFja2FnZXMva2VyYXNfYXBwbGljYXRpb25zL2luY2VwdGlvbl9yZXNuZXRfdjIucHna\nCDxsYW1iZGE+qAAAAPMAAAAA\n", null, null], "function_type": "lambda", "output_shape": [44, 60, 320], "output_shape_type": "raw", "arguments": {"scale": 0.17}}, "inbound_nodes": [[["block35_4_ac", 0, 0, {}], ["block35_5_conv", 0, 0, {}]]]}, {"name": "block35_5_ac", "class_name": "Activation", "config": {"name": "block35_5_ac", "trainable": true, "dtype": "float32", "activation": "relu"}, "inbound_nodes": [[["block35_5", 0, 0, {}]]]}, {"name": "conv2d_249", "class_name": "Conv2D", "config": {"name": "conv2d_249", "trainable": true, "dtype": "float32", "filters": 32, "kernel_size": [1, 1], "strides": [1, 1], "padding": "same", "data_format": "channels_last", "dilation_rate": [1, 1], "activation": "linear", "use_bias": false, "kernel_initializer": {"class_name": "VarianceScaling", "config": {"scale": 1.0, "mode": "fan_avg", "distribution": "uniform", "seed": null}}, "bias_initializer": {"class_name": "Zeros", "config": {}}, "kernel_regularizer": null, "bias_regularizer": null, "activity_regularizer": null, "kernel_constraint": null, "bias_constraint": null}, "inbound_nodes": [[["block35_5_ac", 0, 0, {}]]]}, {"name": "batch_normalization_249", "class_name": "BatchNormalization", "config": {"name": "batch_normalization_249", "trainable": true, "dtype": "float32", "axis": 3, "momentum": 0.99, "epsilon": 0.001, "center": true, "scale": false, "beta_initializer": {"class_name": "Zeros", "config": {}}, "gamma_initializer": {"class_name": "Ones", "config": {}}, "moving_mean_initializer": {"class_name": "Zeros", "config": {}}, "moving_variance_initializer": {"class_name": "Ones", "config": {}}, "beta_regularizer": null, "gamma_regularizer": null, "beta_constraint": null, "gamma_constraint": null}, "inbound_nodes": [[["conv2d_249", 0, 0, {}]]]}, {"name": "activation_249", "class_name": "Activation", "config": {"name": "activation_249", "trainable": true, "dtype": "float32", "activation": "relu"}, "inbound_nodes": [[["batch_normalization_249", 0, 0, {}]]]}, {"name": "conv2d_247", "class_name": "Conv2D", "config": {"name": "conv2d_247", "trainable": true, "dtype": "float32", "filters": 32, "kernel_size": [1, 1], "strides": [1, 1], "padding": "same", "data_format": "channels_last", "dilation_rate": [1, 1], "activation": "linear", "use_bias": false, "kernel_initializer": {"class_name": "VarianceScaling", "config": {"scale": 1.0, "mode": "fan_avg", "distribution": "uniform", "seed": null}}, "bias_initializer": {"class_name": "Zeros", "config": {}}, "kernel_regularizer": null, "bias_regularizer": null, "activity_regularizer": null, "kernel_constraint": null, "bias_constraint": null}, "inbound_nodes": [[["block35_5_ac", 0, 0, {}]]]}, {"name": "conv2d_250", "class_name": "Conv2D", "config": {"name": "conv2d_250", "trainable": true, "dtype": "float32", "filters": 48, "kernel_size": [3, 3], "strides": [1, 1], "padding": "same", "data_format": "channels_last", "dilation_rate": [1, 1], "activation": "linear", "use_bias": false, "kernel_initializer": {"class_name": "VarianceScaling", "config": {"scale": 1.0, "mode": "fan_avg", "distribution": "uniform", "seed": null}}, "bias_initializer": {"class_name": "Zeros", "config": {}}, "kernel_regularizer": null, "bias_regularizer": null, "activity_regularizer": null, "kernel_constraint": null, "bias_constraint": null}, "inbound_nodes": [[["activation_249", 0, 0, {}]]]}, {"name": "batch_normalization_247", "class_name": "BatchNormalization", "config": {"name": "batch_normalization_247", "trainable": true, "dtype": "float32", "axis": 3, "momentum": 0.99, "epsilon": 0.001, "center": true, "scale": false, "beta_initializer": {"class_name": "Zeros", "config": {}}, "gamma_initializer": {"class_name": "Ones", "config": {}}, "moving_mean_initializer": {"class_name": "Zeros", "config": {}}, "moving_variance_initializer": {"class_name": "Ones", "config": {}}, "beta_regularizer": null, "gamma_regularizer": null, "beta_constraint": null, "gamma_constraint": null}, "inbound_nodes": [[["conv2d_247", 0, 0, {}]]]}, {"name": "batch_normalization_250", "class_name": "BatchNormalization", "config": {"name": "batch_normalization_250", "trainable": true, "dtype": "float32", "axis": 3, "momentum": 0.99, "epsilon": 0.001, "center": true, "scale": false, "beta_initializer": {"class_name": "Zeros", "config": {}}, "gamma_initializer": {"class_name": "Ones", "config": {}}, "moving_mean_initializer": {"class_name": "Zeros", "config": {}}, "moving_variance_initializer": {"class_name": "Ones", "config": {}}, "beta_regularizer": null, "gamma_regularizer": null, "beta_constraint": null, "gamma_constraint": null}, "inbound_nodes": [[["conv2d_250", 0, 0, {}]]]}, {"name": "activation_247", "class_name": "Activation", "config": {"name": "activation_247", "trainable": true, "dtype": "float32", "activation": "relu"}, "inbound_nodes": [[["batch_normalization_247", 0, 0, {}]]]}, {"name": "activation_250", "class_name": "Activation", "config": {"name": "activation_250", "trainable": true, "dtype": "float32", "activation": "relu"}, "inbound_nodes": [[["batch_normalization_250", 0, 0, {}]]]}, {"name": "conv2d_246", "class_name": "Conv2D", "config": {"name": "conv2d_246", "trainable": true, "dtype": "float32", "filters": 32, "kernel_size": [1, 1], "strides": [1, 1], "padding": "same", "data_format": "channels_last", "dilation_rate": [1, 1], "activation": "linear", "use_bias": false, "kernel_initializer": {"class_name": "VarianceScaling", "config": {"scale": 1.0, "mode": "fan_avg", "distribution": "uniform", "seed": null}}, "bias_initializer": {"class_name": "Zeros", "config": {}}, "kernel_regularizer": null, "bias_regularizer": null, "activity_regularizer": null, "kernel_constraint": null, "bias_constraint": null}, "inbound_nodes": [[["block35_5_ac", 0, 0, {}]]]}, {"name": "conv2d_248", "class_name": "Conv2D", "config": {"name": "conv2d_248", "trainable": true, "dtype": "float32", "filters": 32, "kernel_size": [3, 3], "strides": [1, 1], "padding": "same", "data_format": "channels_last", "dilation_rate": [1, 1], "activation": "linear", "use_bias": false, "kernel_initializer": {"class_name": "VarianceScaling", "config": {"scale": 1.0, "mode": "fan_avg", "distribution": "uniform", "seed": null}}, "bias_initializer": {"class_name": "Zeros", "config": {}}, "kernel_regularizer": null, "bias_regularizer": null, "activity_regularizer": null, "kernel_constraint": null, "bias_constraint": null}, "inbound_nodes": [[["activation_247", 0, 0, {}]]]}, {"name": "conv2d_251", "class_name": "Conv2D", "config": {"name": "conv2d_251", "trainable": true, "dtype": "float32", "filters": 64, "kernel_size": [3, 3], "strides": [1, 1], "padding": "same", "data_format": "channels_last", "dilation_rate": [1, 1], "activation": "linear", "use_bias": false, "kernel_initializer": {"class_name": "VarianceScaling", "config": {"scale": 1.0, "mode": "fan_avg", "distribution": "uniform", "seed": null}}, "bias_initializer": {"class_name": "Zeros", "config": {}}, "kernel_regularizer": null, "bias_regularizer": null, "activity_regularizer": null, "kernel_constraint": null, "bias_constraint": null}, "inbound_nodes": [[["activation_250", 0, 0, {}]]]}, {"name": "batch_normalization_246", "class_name": "BatchNormalization", "config": {"name": "batch_normalization_246", "trainable": true, "dtype": "float32", "axis": 3, "momentum": 0.99, "epsilon": 0.001, "center": true, "scale": false, "beta_initializer": {"class_name": "Zeros", "config": {}}, "gamma_initializer": {"class_name": "Ones", "config": {}}, "moving_mean_initializer": {"class_name": "Zeros", "config": {}}, "moving_variance_initializer": {"class_name": "Ones", "config": {}}, "beta_regularizer": null, "gamma_regularizer": null, "beta_constraint": null, "gamma_constraint": null}, "inbound_nodes": [[["conv2d_246", 0, 0, {}]]]}, {"name": "batch_normalization_248", "class_name": "BatchNormalization", "config": {"name": "batch_normalization_248", "trainable": true, "dtype": "float32", "axis": 3, "momentum": 0.99, "epsilon": 0.001, "center": true, "scale": false, "beta_initializer": {"class_name": "Zeros", "config": {}}, "gamma_initializer": {"class_name": "Ones", "config": {}}, "moving_mean_initializer": {"class_name": "Zeros", "config": {}}, "moving_variance_initializer": {"class_name": "Ones", "config": {}}, "beta_regularizer": null, "gamma_regularizer": null, "beta_constraint": null, "gamma_constraint": null}, "inbound_nodes": [[["conv2d_248", 0, 0, {}]]]}, {"name": "batch_normalization_251", "class_name": "BatchNormalization", "config": {"name": "batch_normalization_251", "trainable": true, "dtype": "float32", "axis": 3, "momentum": 0.99, "epsilon": 0.001, "center": true, "scale": false, "beta_initializer": {"class_name": "Zeros", "config": {}}, "gamma_initializer": {"class_name": "Ones", "config": {}}, "moving_mean_initializer": {"class_name": "Zeros", "config": {}}, "moving_variance_initializer": {"class_name": "Ones", "config": {}}, "beta_regularizer": null, "gamma_regularizer": null, "beta_constraint": null, "gamma_constraint": null}, "inbound_nodes": [[["conv2d_251", 0, 0, {}]]]}, {"name": "activation_246", "class_name": "Activation", "config": {"name": "activation_246", "trainable": true, "dtype": "float32", "activation": "relu"}, "inbound_nodes": [[["batch_normalization_246", 0, 0, {}]]]}, {"name": "activation_248", "class_name": "Activation", "config": {"name": "activation_248", "trainable": true, "dtype": "float32", "activation": "relu"}, "inbound_nodes": [[["batch_normalization_248", 0, 0, {}]]]}, {"name": "activation_251", "class_name": "Activation", "config": {"name": "activation_251", "trainable": true, "dtype": "float32", "activation": "relu"}, "inbound_nodes": [[["batch_normalization_251", 0, 0, {}]]]}, {"name": "block35_6_mixed", "class_name": "Concatenate", "config": {"name": "block35_6_mixed", "trainable": true, "dtype": "float32", "axis": 3}, "inbound_nodes": [[["activation_246", 0, 0, {}], ["activation_248", 0, 0, {}], ["activation_251", 0, 0, {}]]]}, {"name": "block35_6_conv", "class_name": "Conv2D", "config": {"name": "block35_6_conv", "trainable": true, "dtype": "float32", "filters": 320, "kernel_size": [1, 1], "strides": [1, 1], "padding": "same", "data_format": "channels_last", "dilation_rate": [1, 1], "activation": "linear", "use_bias": true, "kernel_initializer": {"class_name": "VarianceScaling", "config": {"scale": 1.0, "mode": "fan_avg", "distribution": "uniform", "seed": null}}, "bias_initializer": {"class_name": "Zeros", "config": {}}, "kernel_regularizer": null, "bias_regularizer": null, "activity_regularizer": null, "kernel_constraint": null, "bias_constraint": null}, "inbound_nodes": [[["block35_6_mixed", 0, 0, {}]]]}, {"name": "block35_6", "class_name": "Lambda", "config": {"name": "block35_6", "trainable": true, "dtype": "float32", "function": ["4wIAAAAAAAAAAgAAAAMAAABTAAAAcxQAAAB8AGQBGQB8AGQCGQB8ARQAFwBTACkDTukAAAAA6QEA\nAACpACkC2gZpbnB1dHPaBXNjYWxlcgMAAAByAwAAAPpQL3Vzci9sb2NhbC9saWIvcHl0aG9uMy42\nL2Rpc3QtcGFja2FnZXMva2VyYXNfYXBwbGljYXRpb25zL2luY2VwdGlvbl9yZXNuZXRfdjIucHna\nCDxsYW1iZGE+qAAAAPMAAAAA\n", null, null], "function_type": "lambda", "output_shape": [44, 60, 320], "output_shape_type": "raw", "arguments": {"scale": 0.17}}, "inbound_nodes": [[["block35_5_ac", 0, 0, {}], ["block35_6_conv", 0, 0, {}]]]}, {"name": "block35_6_ac", "class_name": "Activation", "config": {"name": "block35_6_ac", "trainable": true, "dtype": "float32", "activation": "relu"}, "inbound_nodes": [[["block35_6", 0, 0, {}]]]}, {"name": "conv2d_255", "class_name": "Conv2D", "config": {"name": "conv2d_255", "trainable": true, "dtype": "float32", "filters": 32, "kernel_size": [1, 1], "strides": [1, 1], "padding": "same", "data_format": "channels_last", "dilation_rate": [1, 1], "activation": "linear", "use_bias": false, "kernel_initializer": {"class_name": "VarianceScaling", "config": {"scale": 1.0, "mode": "fan_avg", "distribution": "uniform", "seed": null}}, "bias_initializer": {"class_name": "Zeros", "config": {}}, "kernel_regularizer": null, "bias_regularizer": null, "activity_regularizer": null, "kernel_constraint": null, "bias_constraint": null}, "inbound_nodes": [[["block35_6_ac", 0, 0, {}]]]}, {"name": "batch_normalization_255", "class_name": "BatchNormalization", "config": {"name": "batch_normalization_255", "trainable": true, "dtype": "float32", "axis": 3, "momentum": 0.99, "epsilon": 0.001, "center": true, "scale": false, "beta_initializer": {"class_name": "Zeros", "config": {}}, "gamma_initializer": {"class_name": "Ones", "config": {}}, "moving_mean_initializer": {"class_name": "Zeros", "config": {}}, "moving_variance_initializer": {"class_name": "Ones", "config": {}}, "beta_regularizer": null, "gamma_regularizer": null, "beta_constraint": null, "gamma_constraint": null}, "inbound_nodes": [[["conv2d_255", 0, 0, {}]]]}, {"name": "activation_255", "class_name": "Activation", "config": {"name": "activation_255", "trainable": true, "dtype": "float32", "activation": "relu"}, "inbound_nodes": [[["batch_normalization_255", 0, 0, {}]]]}, {"name": "conv2d_253", "class_name": "Conv2D", "config": {"name": "conv2d_253", "trainable": true, "dtype": "float32", "filters": 32, "kernel_size": [1, 1], "strides": [1, 1], "padding": "same", "data_format": "channels_last", "dilation_rate": [1, 1], "activation": "linear", "use_bias": false, "kernel_initializer": {"class_name": "VarianceScaling", "config": {"scale": 1.0, "mode": "fan_avg", "distribution": "uniform", "seed": null}}, "bias_initializer": {"class_name": "Zeros", "config": {}}, "kernel_regularizer": null, "bias_regularizer": null, "activity_regularizer": null, "kernel_constraint": null, "bias_constraint": null}, "inbound_nodes": [[["block35_6_ac", 0, 0, {}]]]}, {"name": "conv2d_256", "class_name": "Conv2D", "config": {"name": "conv2d_256", "trainable": true, "dtype": "float32", "filters": 48, "kernel_size": [3, 3], "strides": [1, 1], "padding": "same", "data_format": "channels_last", "dilation_rate": [1, 1], "activation": "linear", "use_bias": false, "kernel_initializer": {"class_name": "VarianceScaling", "config": {"scale": 1.0, "mode": "fan_avg", "distribution": "uniform", "seed": null}}, "bias_initializer": {"class_name": "Zeros", "config": {}}, "kernel_regularizer": null, "bias_regularizer": null, "activity_regularizer": null, "kernel_constraint": null, "bias_constraint": null}, "inbound_nodes": [[["activation_255", 0, 0, {}]]]}, {"name": "batch_normalization_253", "class_name": "BatchNormalization", "config": {"name": "batch_normalization_253", "trainable": true, "dtype": "float32", "axis": 3, "momentum": 0.99, "epsilon": 0.001, "center": true, "scale": false, "beta_initializer": {"class_name": "Zeros", "config": {}}, "gamma_initializer": {"class_name": "Ones", "config": {}}, "moving_mean_initializer": {"class_name": "Zeros", "config": {}}, "moving_variance_initializer": {"class_name": "Ones", "config": {}}, "beta_regularizer": null, "gamma_regularizer": null, "beta_constraint": null, "gamma_constraint": null}, "inbound_nodes": [[["conv2d_253", 0, 0, {}]]]}, {"name": "batch_normalization_256", "class_name": "BatchNormalization", "config": {"name": "batch_normalization_256", "trainable": true, "dtype": "float32", "axis": 3, "momentum": 0.99, "epsilon": 0.001, "center": true, "scale": false, "beta_initializer": {"class_name": "Zeros", "config": {}}, "gamma_initializer": {"class_name": "Ones", "config": {}}, "moving_mean_initializer": {"class_name": "Zeros", "config": {}}, "moving_variance_initializer": {"class_name": "Ones", "config": {}}, "beta_regularizer": null, "gamma_regularizer": null, "beta_constraint": null, "gamma_constraint": null}, "inbound_nodes": [[["conv2d_256", 0, 0, {}]]]}, {"name": "activation_253", "class_name": "Activation", "config": {"name": "activation_253", "trainable": true, "dtype": "float32", "activation": "relu"}, "inbound_nodes": [[["batch_normalization_253", 0, 0, {}]]]}, {"name": "activation_256", "class_name": "Activation", "config": {"name": "activation_256", "trainable": true, "dtype": "float32", "activation": "relu"}, "inbound_nodes": [[["batch_normalization_256", 0, 0, {}]]]}, {"name": "conv2d_252", "class_name": "Conv2D", "config": {"name": "conv2d_252", "trainable": true, "dtype": "float32", "filters": 32, "kernel_size": [1, 1], "strides": [1, 1], "padding": "same", "data_format": "channels_last", "dilation_rate": [1, 1], "activation": "linear", "use_bias": false, "kernel_initializer": {"class_name": "VarianceScaling", "config": {"scale": 1.0, "mode": "fan_avg", "distribution": "uniform", "seed": null}}, "bias_initializer": {"class_name": "Zeros", "config": {}}, "kernel_regularizer": null, "bias_regularizer": null, "activity_regularizer": null, "kernel_constraint": null, "bias_constraint": null}, "inbound_nodes": [[["block35_6_ac", 0, 0, {}]]]}, {"name": "conv2d_254", "class_name": "Conv2D", "config": {"name": "conv2d_254", "trainable": true, "dtype": "float32", "filters": 32, "kernel_size": [3, 3], "strides": [1, 1], "padding": "same", "data_format": "channels_last", "dilation_rate": [1, 1], "activation": "linear", "use_bias": false, "kernel_initializer": {"class_name": "VarianceScaling", "config": {"scale": 1.0, "mode": "fan_avg", "distribution": "uniform", "seed": null}}, "bias_initializer": {"class_name": "Zeros", "config": {}}, "kernel_regularizer": null, "bias_regularizer": null, "activity_regularizer": null, "kernel_constraint": null, "bias_constraint": null}, "inbound_nodes": [[["activation_253", 0, 0, {}]]]}, {"name": "conv2d_257", "class_name": "Conv2D", "config": {"name": "conv2d_257", "trainable": true, "dtype": "float32", "filters": 64, "kernel_size": [3, 3], "strides": [1, 1], "padding": "same", "data_format": "channels_last", "dilation_rate": [1, 1], "activation": "linear", "use_bias": false, "kernel_initializer": {"class_name": "VarianceScaling", "config": {"scale": 1.0, "mode": "fan_avg", "distribution": "uniform", "seed": null}}, "bias_initializer": {"class_name": "Zeros", "config": {}}, "kernel_regularizer": null, "bias_regularizer": null, "activity_regularizer": null, "kernel_constraint": null, "bias_constraint": null}, "inbound_nodes": [[["activation_256", 0, 0, {}]]]}, {"name": "batch_normalization_252", "class_name": "BatchNormalization", "config": {"name": "batch_normalization_252", "trainable": true, "dtype": "float32", "axis": 3, "momentum": 0.99, "epsilon": 0.001, "center": true, "scale": false, "beta_initializer": {"class_name": "Zeros", "config": {}}, "gamma_initializer": {"class_name": "Ones", "config": {}}, "moving_mean_initializer": {"class_name": "Zeros", "config": {}}, "moving_variance_initializer": {"class_name": "Ones", "config": {}}, "beta_regularizer": null, "gamma_regularizer": null, "beta_constraint": null, "gamma_constraint": null}, "inbound_nodes": [[["conv2d_252", 0, 0, {}]]]}, {"name": "batch_normalization_254", "class_name": "BatchNormalization", "config": {"name": "batch_normalization_254", "trainable": true, "dtype": "float32", "axis": 3, "momentum": 0.99, "epsilon": 0.001, "center": true, "scale": false, "beta_initializer": {"class_name": "Zeros", "config": {}}, "gamma_initializer": {"class_name": "Ones", "config": {}}, "moving_mean_initializer": {"class_name": "Zeros", "config": {}}, "moving_variance_initializer": {"class_name": "Ones", "config": {}}, "beta_regularizer": null, "gamma_regularizer": null, "beta_constraint": null, "gamma_constraint": null}, "inbound_nodes": [[["conv2d_254", 0, 0, {}]]]}, {"name": "batch_normalization_257", "class_name": "BatchNormalization", "config": {"name": "batch_normalization_257", "trainable": true, "dtype": "float32", "axis": 3, "momentum": 0.99, "epsilon": 0.001, "center": true, "scale": false, "beta_initializer": {"class_name": "Zeros", "config": {}}, "gamma_initializer": {"class_name": "Ones", "config": {}}, "moving_mean_initializer": {"class_name": "Zeros", "config": {}}, "moving_variance_initializer": {"class_name": "Ones", "config": {}}, "beta_regularizer": null, "gamma_regularizer": null, "beta_constraint": null, "gamma_constraint": null}, "inbound_nodes": [[["conv2d_257", 0, 0, {}]]]}, {"name": "activation_252", "class_name": "Activation", "config": {"name": "activation_252", "trainable": true, "dtype": "float32", "activation": "relu"}, "inbound_nodes": [[["batch_normalization_252", 0, 0, {}]]]}, {"name": "activation_254", "class_name": "Activation", "config": {"name": "activation_254", "trainable": true, "dtype": "float32", "activation": "relu"}, "inbound_nodes": [[["batch_normalization_254", 0, 0, {}]]]}, {"name": "activation_257", "class_name": "Activation", "config": {"name": "activation_257", "trainable": true, "dtype": "float32", "activation": "relu"}, "inbound_nodes": [[["batch_normalization_257", 0, 0, {}]]]}, {"name": "block35_7_mixed", "class_name": "Concatenate", "config": {"name": "block35_7_mixed", "trainable": true, "dtype": "float32", "axis": 3}, "inbound_nodes": [[["activation_252", 0, 0, {}], ["activation_254", 0, 0, {}], ["activation_257", 0, 0, {}]]]}, {"name": "block35_7_conv", "class_name": "Conv2D", "config": {"name": "block35_7_conv", "trainable": true, "dtype": "float32", "filters": 320, "kernel_size": [1, 1], "strides": [1, 1], "padding": "same", "data_format": "channels_last", "dilation_rate": [1, 1], "activation": "linear", "use_bias": true, "kernel_initializer": {"class_name": "VarianceScaling", "config": {"scale": 1.0, "mode": "fan_avg", "distribution": "uniform", "seed": null}}, "bias_initializer": {"class_name": "Zeros", "config": {}}, "kernel_regularizer": null, "bias_regularizer": null, "activity_regularizer": null, "kernel_constraint": null, "bias_constraint": null}, "inbound_nodes": [[["block35_7_mixed", 0, 0, {}]]]}, {"name": "block35_7", "class_name": "Lambda", "config": {"name": "block35_7", "trainable": true, "dtype": "float32", "function": ["4wIAAAAAAAAAAgAAAAMAAABTAAAAcxQAAAB8AGQBGQB8AGQCGQB8ARQAFwBTACkDTukAAAAA6QEA\nAACpACkC2gZpbnB1dHPaBXNjYWxlcgMAAAByAwAAAPpQL3Vzci9sb2NhbC9saWIvcHl0aG9uMy42\nL2Rpc3QtcGFja2FnZXMva2VyYXNfYXBwbGljYXRpb25zL2luY2VwdGlvbl9yZXNuZXRfdjIucHna\nCDxsYW1iZGE+qAAAAPMAAAAA\n", null, null], "function_type": "lambda", "output_shape": [44, 60, 320], "output_shape_type": "raw", "arguments": {"scale": 0.17}}, "inbound_nodes": [[["block35_6_ac", 0, 0, {}], ["block35_7_conv", 0, 0, {}]]]}, {"name": "block35_7_ac", "class_name": "Activation", "config": {"name": "block35_7_ac", "trainable": true, "dtype": "float32", "activation": "relu"}, "inbound_nodes": [[["block35_7", 0, 0, {}]]]}, {"name": "conv2d_261", "class_name": "Conv2D", "config": {"name": "conv2d_261", "trainable": true, "dtype": "float32", "filters": 32, "kernel_size": [1, 1], "strides": [1, 1], "padding": "same", "data_format": "channels_last", "dilation_rate": [1, 1], "activation": "linear", "use_bias": false, "kernel_initializer": {"class_name": "VarianceScaling", "config": {"scale": 1.0, "mode": "fan_avg", "distribution": "uniform", "seed": null}}, "bias_initializer": {"class_name": "Zeros", "config": {}}, "kernel_regularizer": null, "bias_regularizer": null, "activity_regularizer": null, "kernel_constraint": null, "bias_constraint": null}, "inbound_nodes": [[["block35_7_ac", 0, 0, {}]]]}, {"name": "batch_normalization_261", "class_name": "BatchNormalization", "config": {"name": "batch_normalization_261", "trainable": true, "dtype": "float32", "axis": 3, "momentum": 0.99, "epsilon": 0.001, "center": true, "scale": false, "beta_initializer": {"class_name": "Zeros", "config": {}}, "gamma_initializer": {"class_name": "Ones", "config": {}}, "moving_mean_initializer": {"class_name": "Zeros", "config": {}}, "moving_variance_initializer": {"class_name": "Ones", "config": {}}, "beta_regularizer": null, "gamma_regularizer": null, "beta_constraint": null, "gamma_constraint": null}, "inbound_nodes": [[["conv2d_261", 0, 0, {}]]]}, {"name": "activation_261", "class_name": "Activation", "config": {"name": "activation_261", "trainable": true, "dtype": "float32", "activation": "relu"}, "inbound_nodes": [[["batch_normalization_261", 0, 0, {}]]]}, {"name": "conv2d_259", "class_name": "Conv2D", "config": {"name": "conv2d_259", "trainable": true, "dtype": "float32", "filters": 32, "kernel_size": [1, 1], "strides": [1, 1], "padding": "same", "data_format": "channels_last", "dilation_rate": [1, 1], "activation": "linear", "use_bias": false, "kernel_initializer": {"class_name": "VarianceScaling", "config": {"scale": 1.0, "mode": "fan_avg", "distribution": "uniform", "seed": null}}, "bias_initializer": {"class_name": "Zeros", "config": {}}, "kernel_regularizer": null, "bias_regularizer": null, "activity_regularizer": null, "kernel_constraint": null, "bias_constraint": null}, "inbound_nodes": [[["block35_7_ac", 0, 0, {}]]]}, {"name": "conv2d_262", "class_name": "Conv2D", "config": {"name": "conv2d_262", "trainable": true, "dtype": "float32", "filters": 48, "kernel_size": [3, 3], "strides": [1, 1], "padding": "same", "data_format": "channels_last", "dilation_rate": [1, 1], "activation": "linear", "use_bias": false, "kernel_initializer": {"class_name": "VarianceScaling", "config": {"scale": 1.0, "mode": "fan_avg", "distribution": "uniform", "seed": null}}, "bias_initializer": {"class_name": "Zeros", "config": {}}, "kernel_regularizer": null, "bias_regularizer": null, "activity_regularizer": null, "kernel_constraint": null, "bias_constraint": null}, "inbound_nodes": [[["activation_261", 0, 0, {}]]]}, {"name": "batch_normalization_259", "class_name": "BatchNormalization", "config": {"name": "batch_normalization_259", "trainable": true, "dtype": "float32", "axis": 3, "momentum": 0.99, "epsilon": 0.001, "center": true, "scale": false, "beta_initializer": {"class_name": "Zeros", "config": {}}, "gamma_initializer": {"class_name": "Ones", "config": {}}, "moving_mean_initializer": {"class_name": "Zeros", "config": {}}, "moving_variance_initializer": {"class_name": "Ones", "config": {}}, "beta_regularizer": null, "gamma_regularizer": null, "beta_constraint": null, "gamma_constraint": null}, "inbound_nodes": [[["conv2d_259", 0, 0, {}]]]}, {"name": "batch_normalization_262", "class_name": "BatchNormalization", "config": {"name": "batch_normalization_262", "trainable": true, "dtype": "float32", "axis": 3, "momentum": 0.99, "epsilon": 0.001, "center": true, "scale": false, "beta_initializer": {"class_name": "Zeros", "config": {}}, "gamma_initializer": {"class_name": "Ones", "config": {}}, "moving_mean_initializer": {"class_name": "Zeros", "config": {}}, "moving_variance_initializer": {"class_name": "Ones", "config": {}}, "beta_regularizer": null, "gamma_regularizer": null, "beta_constraint": null, "gamma_constraint": null}, "inbound_nodes": [[["conv2d_262", 0, 0, {}]]]}, {"name": "activation_259", "class_name": "Activation", "config": {"name": "activation_259", "trainable": true, "dtype": "float32", "activation": "relu"}, "inbound_nodes": [[["batch_normalization_259", 0, 0, {}]]]}, {"name": "activation_262", "class_name": "Activation", "config": {"name": "activation_262", "trainable": true, "dtype": "float32", "activation": "relu"}, "inbound_nodes": [[["batch_normalization_262", 0, 0, {}]]]}, {"name": "conv2d_258", "class_name": "Conv2D", "config": {"name": "conv2d_258", "trainable": true, "dtype": "float32", "filters": 32, "kernel_size": [1, 1], "strides": [1, 1], "padding": "same", "data_format": "channels_last", "dilation_rate": [1, 1], "activation": "linear", "use_bias": false, "kernel_initializer": {"class_name": "VarianceScaling", "config": {"scale": 1.0, "mode": "fan_avg", "distribution": "uniform", "seed": null}}, "bias_initializer": {"class_name": "Zeros", "config": {}}, "kernel_regularizer": null, "bias_regularizer": null, "activity_regularizer": null, "kernel_constraint": null, "bias_constraint": null}, "inbound_nodes": [[["block35_7_ac", 0, 0, {}]]]}, {"name": "conv2d_260", "class_name": "Conv2D", "config": {"name": "conv2d_260", "trainable": true, "dtype": "float32", "filters": 32, "kernel_size": [3, 3], "strides": [1, 1], "padding": "same", "data_format": "channels_last", "dilation_rate": [1, 1], "activation": "linear", "use_bias": false, "kernel_initializer": {"class_name": "VarianceScaling", "config": {"scale": 1.0, "mode": "fan_avg", "distribution": "uniform", "seed": null}}, "bias_initializer": {"class_name": "Zeros", "config": {}}, "kernel_regularizer": null, "bias_regularizer": null, "activity_regularizer": null, "kernel_constraint": null, "bias_constraint": null}, "inbound_nodes": [[["activation_259", 0, 0, {}]]]}, {"name": "conv2d_263", "class_name": "Conv2D", "config": {"name": "conv2d_263", "trainable": true, "dtype": "float32", "filters": 64, "kernel_size": [3, 3], "strides": [1, 1], "padding": "same", "data_format": "channels_last", "dilation_rate": [1, 1], "activation": "linear", "use_bias": false, "kernel_initializer": {"class_name": "VarianceScaling", "config": {"scale": 1.0, "mode": "fan_avg", "distribution": "uniform", "seed": null}}, "bias_initializer": {"class_name": "Zeros", "config": {}}, "kernel_regularizer": null, "bias_regularizer": null, "activity_regularizer": null, "kernel_constraint": null, "bias_constraint": null}, "inbound_nodes": [[["activation_262", 0, 0, {}]]]}, {"name": "batch_normalization_258", "class_name": "BatchNormalization", "config": {"name": "batch_normalization_258", "trainable": true, "dtype": "float32", "axis": 3, "momentum": 0.99, "epsilon": 0.001, "center": true, "scale": false, "beta_initializer": {"class_name": "Zeros", "config": {}}, "gamma_initializer": {"class_name": "Ones", "config": {}}, "moving_mean_initializer": {"class_name": "Zeros", "config": {}}, "moving_variance_initializer": {"class_name": "Ones", "config": {}}, "beta_regularizer": null, "gamma_regularizer": null, "beta_constraint": null, "gamma_constraint": null}, "inbound_nodes": [[["conv2d_258", 0, 0, {}]]]}, {"name": "batch_normalization_260", "class_name": "BatchNormalization", "config": {"name": "batch_normalization_260", "trainable": true, "dtype": "float32", "axis": 3, "momentum": 0.99, "epsilon": 0.001, "center": true, "scale": false, "beta_initializer": {"class_name": "Zeros", "config": {}}, "gamma_initializer": {"class_name": "Ones", "config": {}}, "moving_mean_initializer": {"class_name": "Zeros", "config": {}}, "moving_variance_initializer": {"class_name": "Ones", "config": {}}, "beta_regularizer": null, "gamma_regularizer": null, "beta_constraint": null, "gamma_constraint": null}, "inbound_nodes": [[["conv2d_260", 0, 0, {}]]]}, {"name": "batch_normalization_263", "class_name": "BatchNormalization", "config": {"name": "batch_normalization_263", "trainable": true, "dtype": "float32", "axis": 3, "momentum": 0.99, "epsilon": 0.001, "center": true, "scale": false, "beta_initializer": {"class_name": "Zeros", "config": {}}, "gamma_initializer": {"class_name": "Ones", "config": {}}, "moving_mean_initializer": {"class_name": "Zeros", "config": {}}, "moving_variance_initializer": {"class_name": "Ones", "config": {}}, "beta_regularizer": null, "gamma_regularizer": null, "beta_constraint": null, "gamma_constraint": null}, "inbound_nodes": [[["conv2d_263", 0, 0, {}]]]}, {"name": "activation_258", "class_name": "Activation", "config": {"name": "activation_258", "trainable": true, "dtype": "float32", "activation": "relu"}, "inbound_nodes": [[["batch_normalization_258", 0, 0, {}]]]}, {"name": "activation_260", "class_name": "Activation", "config": {"name": "activation_260", "trainable": true, "dtype": "float32", "activation": "relu"}, "inbound_nodes": [[["batch_normalization_260", 0, 0, {}]]]}, {"name": "activation_263", "class_name": "Activation", "config": {"name": "activation_263", "trainable": true, "dtype": "float32", "activation": "relu"}, "inbound_nodes": [[["batch_normalization_263", 0, 0, {}]]]}, {"name": "block35_8_mixed", "class_name": "Concatenate", "config": {"name": "block35_8_mixed", "trainable": true, "dtype": "float32", "axis": 3}, "inbound_nodes": [[["activation_258", 0, 0, {}], ["activation_260", 0, 0, {}], ["activation_263", 0, 0, {}]]]}, {"name": "block35_8_conv", "class_name": "Conv2D", "config": {"name": "block35_8_conv", "trainable": true, "dtype": "float32", "filters": 320, "kernel_size": [1, 1], "strides": [1, 1], "padding": "same", "data_format": "channels_last", "dilation_rate": [1, 1], "activation": "linear", "use_bias": true, "kernel_initializer": {"class_name": "VarianceScaling", "config": {"scale": 1.0, "mode": "fan_avg", "distribution": "uniform", "seed": null}}, "bias_initializer": {"class_name": "Zeros", "config": {}}, "kernel_regularizer": null, "bias_regularizer": null, "activity_regularizer": null, "kernel_constraint": null, "bias_constraint": null}, "inbound_nodes": [[["block35_8_mixed", 0, 0, {}]]]}, {"name": "block35_8", "class_name": "Lambda", "config": {"name": "block35_8", "trainable": true, "dtype": "float32", "function": ["4wIAAAAAAAAAAgAAAAMAAABTAAAAcxQAAAB8AGQBGQB8AGQCGQB8ARQAFwBTACkDTukAAAAA6QEA\nAACpACkC2gZpbnB1dHPaBXNjYWxlcgMAAAByAwAAAPpQL3Vzci9sb2NhbC9saWIvcHl0aG9uMy42\nL2Rpc3QtcGFja2FnZXMva2VyYXNfYXBwbGljYXRpb25zL2luY2VwdGlvbl9yZXNuZXRfdjIucHna\nCDxsYW1iZGE+qAAAAPMAAAAA\n", null, null], "function_type": "lambda", "output_shape": [44, 60, 320], "output_shape_type": "raw", "arguments": {"scale": 0.17}}, "inbound_nodes": [[["block35_7_ac", 0, 0, {}], ["block35_8_conv", 0, 0, {}]]]}, {"name": "block35_8_ac", "class_name": "Activation", "config": {"name": "block35_8_ac", "trainable": true, "dtype": "float32", "activation": "relu"}, "inbound_nodes": [[["block35_8", 0, 0, {}]]]}, {"name": "conv2d_267", "class_name": "Conv2D", "config": {"name": "conv2d_267", "trainable": true, "dtype": "float32", "filters": 32, "kernel_size": [1, 1], "strides": [1, 1], "padding": "same", "data_format": "channels_last", "dilation_rate": [1, 1], "activation": "linear", "use_bias": false, "kernel_initializer": {"class_name": "VarianceScaling", "config": {"scale": 1.0, "mode": "fan_avg", "distribution": "uniform", "seed": null}}, "bias_initializer": {"class_name": "Zeros", "config": {}}, "kernel_regularizer": null, "bias_regularizer": null, "activity_regularizer": null, "kernel_constraint": null, "bias_constraint": null}, "inbound_nodes": [[["block35_8_ac", 0, 0, {}]]]}, {"name": "batch_normalization_267", "class_name": "BatchNormalization", "config": {"name": "batch_normalization_267", "trainable": true, "dtype": "float32", "axis": 3, "momentum": 0.99, "epsilon": 0.001, "center": true, "scale": false, "beta_initializer": {"class_name": "Zeros", "config": {}}, "gamma_initializer": {"class_name": "Ones", "config": {}}, "moving_mean_initializer": {"class_name": "Zeros", "config": {}}, "moving_variance_initializer": {"class_name": "Ones", "config": {}}, "beta_regularizer": null, "gamma_regularizer": null, "beta_constraint": null, "gamma_constraint": null}, "inbound_nodes": [[["conv2d_267", 0, 0, {}]]]}, {"name": "activation_267", "class_name": "Activation", "config": {"name": "activation_267", "trainable": true, "dtype": "float32", "activation": "relu"}, "inbound_nodes": [[["batch_normalization_267", 0, 0, {}]]]}, {"name": "conv2d_265", "class_name": "Conv2D", "config": {"name": "conv2d_265", "trainable": true, "dtype": "float32", "filters": 32, "kernel_size": [1, 1], "strides": [1, 1], "padding": "same", "data_format": "channels_last", "dilation_rate": [1, 1], "activation": "linear", "use_bias": false, "kernel_initializer": {"class_name": "VarianceScaling", "config": {"scale": 1.0, "mode": "fan_avg", "distribution": "uniform", "seed": null}}, "bias_initializer": {"class_name": "Zeros", "config": {}}, "kernel_regularizer": null, "bias_regularizer": null, "activity_regularizer": null, "kernel_constraint": null, "bias_constraint": null}, "inbound_nodes": [[["block35_8_ac", 0, 0, {}]]]}, {"name": "conv2d_268", "class_name": "Conv2D", "config": {"name": "conv2d_268", "trainable": true, "dtype": "float32", "filters": 48, "kernel_size": [3, 3], "strides": [1, 1], "padding": "same", "data_format": "channels_last", "dilation_rate": [1, 1], "activation": "linear", "use_bias": false, "kernel_initializer": {"class_name": "VarianceScaling", "config": {"scale": 1.0, "mode": "fan_avg", "distribution": "uniform", "seed": null}}, "bias_initializer": {"class_name": "Zeros", "config": {}}, "kernel_regularizer": null, "bias_regularizer": null, "activity_regularizer": null, "kernel_constraint": null, "bias_constraint": null}, "inbound_nodes": [[["activation_267", 0, 0, {}]]]}, {"name": "batch_normalization_265", "class_name": "BatchNormalization", "config": {"name": "batch_normalization_265", "trainable": true, "dtype": "float32", "axis": 3, "momentum": 0.99, "epsilon": 0.001, "center": true, "scale": false, "beta_initializer": {"class_name": "Zeros", "config": {}}, "gamma_initializer": {"class_name": "Ones", "config": {}}, "moving_mean_initializer": {"class_name": "Zeros", "config": {}}, "moving_variance_initializer": {"class_name": "Ones", "config": {}}, "beta_regularizer": null, "gamma_regularizer": null, "beta_constraint": null, "gamma_constraint": null}, "inbound_nodes": [[["conv2d_265", 0, 0, {}]]]}, {"name": "batch_normalization_268", "class_name": "BatchNormalization", "config": {"name": "batch_normalization_268", "trainable": true, "dtype": "float32", "axis": 3, "momentum": 0.99, "epsilon": 0.001, "center": true, "scale": false, "beta_initializer": {"class_name": "Zeros", "config": {}}, "gamma_initializer": {"class_name": "Ones", "config": {}}, "moving_mean_initializer": {"class_name": "Zeros", "config": {}}, "moving_variance_initializer": {"class_name": "Ones", "config": {}}, "beta_regularizer": null, "gamma_regularizer": null, "beta_constraint": null, "gamma_constraint": null}, "inbound_nodes": [[["conv2d_268", 0, 0, {}]]]}, {"name": "activation_265", "class_name": "Activation", "config": {"name": "activation_265", "trainable": true, "dtype": "float32", "activation": "relu"}, "inbound_nodes": [[["batch_normalization_265", 0, 0, {}]]]}, {"name": "activation_268", "class_name": "Activation", "config": {"name": "activation_268", "trainable": true, "dtype": "float32", "activation": "relu"}, "inbound_nodes": [[["batch_normalization_268", 0, 0, {}]]]}, {"name": "conv2d_264", "class_name": "Conv2D", "config": {"name": "conv2d_264", "trainable": true, "dtype": "float32", "filters": 32, "kernel_size": [1, 1], "strides": [1, 1], "padding": "same", "data_format": "channels_last", "dilation_rate": [1, 1], "activation": "linear", "use_bias": false, "kernel_initializer": {"class_name": "VarianceScaling", "config": {"scale": 1.0, "mode": "fan_avg", "distribution": "uniform", "seed": null}}, "bias_initializer": {"class_name": "Zeros", "config": {}}, "kernel_regularizer": null, "bias_regularizer": null, "activity_regularizer": null, "kernel_constraint": null, "bias_constraint": null}, "inbound_nodes": [[["block35_8_ac", 0, 0, {}]]]}, {"name": "conv2d_266", "class_name": "Conv2D", "config": {"name": "conv2d_266", "trainable": true, "dtype": "float32", "filters": 32, "kernel_size": [3, 3], "strides": [1, 1], "padding": "same", "data_format": "channels_last", "dilation_rate": [1, 1], "activation": "linear", "use_bias": false, "kernel_initializer": {"class_name": "VarianceScaling", "config": {"scale": 1.0, "mode": "fan_avg", "distribution": "uniform", "seed": null}}, "bias_initializer": {"class_name": "Zeros", "config": {}}, "kernel_regularizer": null, "bias_regularizer": null, "activity_regularizer": null, "kernel_constraint": null, "bias_constraint": null}, "inbound_nodes": [[["activation_265", 0, 0, {}]]]}, {"name": "conv2d_269", "class_name": "Conv2D", "config": {"name": "conv2d_269", "trainable": true, "dtype": "float32", "filters": 64, "kernel_size": [3, 3], "strides": [1, 1], "padding": "same", "data_format": "channels_last", "dilation_rate": [1, 1], "activation": "linear", "use_bias": false, "kernel_initializer": {"class_name": "VarianceScaling", "config": {"scale": 1.0, "mode": "fan_avg", "distribution": "uniform", "seed": null}}, "bias_initializer": {"class_name": "Zeros", "config": {}}, "kernel_regularizer": null, "bias_regularizer": null, "activity_regularizer": null, "kernel_constraint": null, "bias_constraint": null}, "inbound_nodes": [[["activation_268", 0, 0, {}]]]}, {"name": "batch_normalization_264", "class_name": "BatchNormalization", "config": {"name": "batch_normalization_264", "trainable": true, "dtype": "float32", "axis": 3, "momentum": 0.99, "epsilon": 0.001, "center": true, "scale": false, "beta_initializer": {"class_name": "Zeros", "config": {}}, "gamma_initializer": {"class_name": "Ones", "config": {}}, "moving_mean_initializer": {"class_name": "Zeros", "config": {}}, "moving_variance_initializer": {"class_name": "Ones", "config": {}}, "beta_regularizer": null, "gamma_regularizer": null, "beta_constraint": null, "gamma_constraint": null}, "inbound_nodes": [[["conv2d_264", 0, 0, {}]]]}, {"name": "batch_normalization_266", "class_name": "BatchNormalization", "config": {"name": "batch_normalization_266", "trainable": true, "dtype": "float32", "axis": 3, "momentum": 0.99, "epsilon": 0.001, "center": true, "scale": false, "beta_initializer": {"class_name": "Zeros", "config": {}}, "gamma_initializer": {"class_name": "Ones", "config": {}}, "moving_mean_initializer": {"class_name": "Zeros", "config": {}}, "moving_variance_initializer": {"class_name": "Ones", "config": {}}, "beta_regularizer": null, "gamma_regularizer": null, "beta_constraint": null, "gamma_constraint": null}, "inbound_nodes": [[["conv2d_266", 0, 0, {}]]]}, {"name": "batch_normalization_269", "class_name": "BatchNormalization", "config": {"name": "batch_normalization_269", "trainable": true, "dtype": "float32", "axis": 3, "momentum": 0.99, "epsilon": 0.001, "center": true, "scale": false, "beta_initializer": {"class_name": "Zeros", "config": {}}, "gamma_initializer": {"class_name": "Ones", "config": {}}, "moving_mean_initializer": {"class_name": "Zeros", "config": {}}, "moving_variance_initializer": {"class_name": "Ones", "config": {}}, "beta_regularizer": null, "gamma_regularizer": null, "beta_constraint": null, "gamma_constraint": null}, "inbound_nodes": [[["conv2d_269", 0, 0, {}]]]}, {"name": "activation_264", "class_name": "Activation", "config": {"name": "activation_264", "trainable": true, "dtype": "float32", "activation": "relu"}, "inbound_nodes": [[["batch_normalization_264", 0, 0, {}]]]}, {"name": "activation_266", "class_name": "Activation", "config": {"name": "activation_266", "trainable": true, "dtype": "float32", "activation": "relu"}, "inbound_nodes": [[["batch_normalization_266", 0, 0, {}]]]}, {"name": "activation_269", "class_name": "Activation", "config": {"name": "activation_269", "trainable": true, "dtype": "float32", "activation": "relu"}, "inbound_nodes": [[["batch_normalization_269", 0, 0, {}]]]}, {"name": "block35_9_mixed", "class_name": "Concatenate", "config": {"name": "block35_9_mixed", "trainable": true, "dtype": "float32", "axis": 3}, "inbound_nodes": [[["activation_264", 0, 0, {}], ["activation_266", 0, 0, {}], ["activation_269", 0, 0, {}]]]}, {"name": "block35_9_conv", "class_name": "Conv2D", "config": {"name": "block35_9_conv", "trainable": true, "dtype": "float32", "filters": 320, "kernel_size": [1, 1], "strides": [1, 1], "padding": "same", "data_format": "channels_last", "dilation_rate": [1, 1], "activation": "linear", "use_bias": true, "kernel_initializer": {"class_name": "VarianceScaling", "config": {"scale": 1.0, "mode": "fan_avg", "distribution": "uniform", "seed": null}}, "bias_initializer": {"class_name": "Zeros", "config": {}}, "kernel_regularizer": null, "bias_regularizer": null, "activity_regularizer": null, "kernel_constraint": null, "bias_constraint": null}, "inbound_nodes": [[["block35_9_mixed", 0, 0, {}]]]}, {"name": "block35_9", "class_name": "Lambda", "config": {"name": "block35_9", "trainable": true, "dtype": "float32", "function": ["4wIAAAAAAAAAAgAAAAMAAABTAAAAcxQAAAB8AGQBGQB8AGQCGQB8ARQAFwBTACkDTukAAAAA6QEA\nAACpACkC2gZpbnB1dHPaBXNjYWxlcgMAAAByAwAAAPpQL3Vzci9sb2NhbC9saWIvcHl0aG9uMy42\nL2Rpc3QtcGFja2FnZXMva2VyYXNfYXBwbGljYXRpb25zL2luY2VwdGlvbl9yZXNuZXRfdjIucHna\nCDxsYW1iZGE+qAAAAPMAAAAA\n", null, null], "function_type": "lambda", "output_shape": [44, 60, 320], "output_shape_type": "raw", "arguments": {"scale": 0.17}}, "inbound_nodes": [[["block35_8_ac", 0, 0, {}], ["block35_9_conv", 0, 0, {}]]]}, {"name": "block35_9_ac", "class_name": "Activation", "config": {"name": "block35_9_ac", "trainable": true, "dtype": "float32", "activation": "relu"}, "inbound_nodes": [[["block35_9", 0, 0, {}]]]}, {"name": "conv2d_273", "class_name": "Conv2D", "config": {"name": "conv2d_273", "trainable": true, "dtype": "float32", "filters": 32, "kernel_size": [1, 1], "strides": [1, 1], "padding": "same", "data_format": "channels_last", "dilation_rate": [1, 1], "activation": "linear", "use_bias": false, "kernel_initializer": {"class_name": "VarianceScaling", "config": {"scale": 1.0, "mode": "fan_avg", "distribution": "uniform", "seed": null}}, "bias_initializer": {"class_name": "Zeros", "config": {}}, "kernel_regularizer": null, "bias_regularizer": null, "activity_regularizer": null, "kernel_constraint": null, "bias_constraint": null}, "inbound_nodes": [[["block35_9_ac", 0, 0, {}]]]}, {"name": "batch_normalization_273", "class_name": "BatchNormalization", "config": {"name": "batch_normalization_273", "trainable": true, "dtype": "float32", "axis": 3, "momentum": 0.99, "epsilon": 0.001, "center": true, "scale": false, "beta_initializer": {"class_name": "Zeros", "config": {}}, "gamma_initializer": {"class_name": "Ones", "config": {}}, "moving_mean_initializer": {"class_name": "Zeros", "config": {}}, "moving_variance_initializer": {"class_name": "Ones", "config": {}}, "beta_regularizer": null, "gamma_regularizer": null, "beta_constraint": null, "gamma_constraint": null}, "inbound_nodes": [[["conv2d_273", 0, 0, {}]]]}, {"name": "activation_273", "class_name": "Activation", "config": {"name": "activation_273", "trainable": true, "dtype": "float32", "activation": "relu"}, "inbound_nodes": [[["batch_normalization_273", 0, 0, {}]]]}, {"name": "conv2d_271", "class_name": "Conv2D", "config": {"name": "conv2d_271", "trainable": true, "dtype": "float32", "filters": 32, "kernel_size": [1, 1], "strides": [1, 1], "padding": "same", "data_format": "channels_last", "dilation_rate": [1, 1], "activation": "linear", "use_bias": false, "kernel_initializer": {"class_name": "VarianceScaling", "config": {"scale": 1.0, "mode": "fan_avg", "distribution": "uniform", "seed": null}}, "bias_initializer": {"class_name": "Zeros", "config": {}}, "kernel_regularizer": null, "bias_regularizer": null, "activity_regularizer": null, "kernel_constraint": null, "bias_constraint": null}, "inbound_nodes": [[["block35_9_ac", 0, 0, {}]]]}, {"name": "conv2d_274", "class_name": "Conv2D", "config": {"name": "conv2d_274", "trainable": true, "dtype": "float32", "filters": 48, "kernel_size": [3, 3], "strides": [1, 1], "padding": "same", "data_format": "channels_last", "dilation_rate": [1, 1], "activation": "linear", "use_bias": false, "kernel_initializer": {"class_name": "VarianceScaling", "config": {"scale": 1.0, "mode": "fan_avg", "distribution": "uniform", "seed": null}}, "bias_initializer": {"class_name": "Zeros", "config": {}}, "kernel_regularizer": null, "bias_regularizer": null, "activity_regularizer": null, "kernel_constraint": null, "bias_constraint": null}, "inbound_nodes": [[["activation_273", 0, 0, {}]]]}, {"name": "batch_normalization_271", "class_name": "BatchNormalization", "config": {"name": "batch_normalization_271", "trainable": true, "dtype": "float32", "axis": 3, "momentum": 0.99, "epsilon": 0.001, "center": true, "scale": false, "beta_initializer": {"class_name": "Zeros", "config": {}}, "gamma_initializer": {"class_name": "Ones", "config": {}}, "moving_mean_initializer": {"class_name": "Zeros", "config": {}}, "moving_variance_initializer": {"class_name": "Ones", "config": {}}, "beta_regularizer": null, "gamma_regularizer": null, "beta_constraint": null, "gamma_constraint": null}, "inbound_nodes": [[["conv2d_271", 0, 0, {}]]]}, {"name": "batch_normalization_274", "class_name": "BatchNormalization", "config": {"name": "batch_normalization_274", "trainable": true, "dtype": "float32", "axis": 3, "momentum": 0.99, "epsilon": 0.001, "center": true, "scale": false, "beta_initializer": {"class_name": "Zeros", "config": {}}, "gamma_initializer": {"class_name": "Ones", "config": {}}, "moving_mean_initializer": {"class_name": "Zeros", "config": {}}, "moving_variance_initializer": {"class_name": "Ones", "config": {}}, "beta_regularizer": null, "gamma_regularizer": null, "beta_constraint": null, "gamma_constraint": null}, "inbound_nodes": [[["conv2d_274", 0, 0, {}]]]}, {"name": "activation_271", "class_name": "Activation", "config": {"name": "activation_271", "trainable": true, "dtype": "float32", "activation": "relu"}, "inbound_nodes": [[["batch_normalization_271", 0, 0, {}]]]}, {"name": "activation_274", "class_name": "Activation", "config": {"name": "activation_274", "trainable": true, "dtype": "float32", "activation": "relu"}, "inbound_nodes": [[["batch_normalization_274", 0, 0, {}]]]}, {"name": "conv2d_270", "class_name": "Conv2D", "config": {"name": "conv2d_270", "trainable": true, "dtype": "float32", "filters": 32, "kernel_size": [1, 1], "strides": [1, 1], "padding": "same", "data_format": "channels_last", "dilation_rate": [1, 1], "activation": "linear", "use_bias": false, "kernel_initializer": {"class_name": "VarianceScaling", "config": {"scale": 1.0, "mode": "fan_avg", "distribution": "uniform", "seed": null}}, "bias_initializer": {"class_name": "Zeros", "config": {}}, "kernel_regularizer": null, "bias_regularizer": null, "activity_regularizer": null, "kernel_constraint": null, "bias_constraint": null}, "inbound_nodes": [[["block35_9_ac", 0, 0, {}]]]}, {"name": "conv2d_272", "class_name": "Conv2D", "config": {"name": "conv2d_272", "trainable": true, "dtype": "float32", "filters": 32, "kernel_size": [3, 3], "strides": [1, 1], "padding": "same", "data_format": "channels_last", "dilation_rate": [1, 1], "activation": "linear", "use_bias": false, "kernel_initializer": {"class_name": "VarianceScaling", "config": {"scale": 1.0, "mode": "fan_avg", "distribution": "uniform", "seed": null}}, "bias_initializer": {"class_name": "Zeros", "config": {}}, "kernel_regularizer": null, "bias_regularizer": null, "activity_regularizer": null, "kernel_constraint": null, "bias_constraint": null}, "inbound_nodes": [[["activation_271", 0, 0, {}]]]}, {"name": "conv2d_275", "class_name": "Conv2D", "config": {"name": "conv2d_275", "trainable": true, "dtype": "float32", "filters": 64, "kernel_size": [3, 3], "strides": [1, 1], "padding": "same", "data_format": "channels_last", "dilation_rate": [1, 1], "activation": "linear", "use_bias": false, "kernel_initializer": {"class_name": "VarianceScaling", "config": {"scale": 1.0, "mode": "fan_avg", "distribution": "uniform", "seed": null}}, "bias_initializer": {"class_name": "Zeros", "config": {}}, "kernel_regularizer": null, "bias_regularizer": null, "activity_regularizer": null, "kernel_constraint": null, "bias_constraint": null}, "inbound_nodes": [[["activation_274", 0, 0, {}]]]}, {"name": "batch_normalization_270", "class_name": "BatchNormalization", "config": {"name": "batch_normalization_270", "trainable": true, "dtype": "float32", "axis": 3, "momentum": 0.99, "epsilon": 0.001, "center": true, "scale": false, "beta_initializer": {"class_name": "Zeros", "config": {}}, "gamma_initializer": {"class_name": "Ones", "config": {}}, "moving_mean_initializer": {"class_name": "Zeros", "config": {}}, "moving_variance_initializer": {"class_name": "Ones", "config": {}}, "beta_regularizer": null, "gamma_regularizer": null, "beta_constraint": null, "gamma_constraint": null}, "inbound_nodes": [[["conv2d_270", 0, 0, {}]]]}, {"name": "batch_normalization_272", "class_name": "BatchNormalization", "config": {"name": "batch_normalization_272", "trainable": true, "dtype": "float32", "axis": 3, "momentum": 0.99, "epsilon": 0.001, "center": true, "scale": false, "beta_initializer": {"class_name": "Zeros", "config": {}}, "gamma_initializer": {"class_name": "Ones", "config": {}}, "moving_mean_initializer": {"class_name": "Zeros", "config": {}}, "moving_variance_initializer": {"class_name": "Ones", "config": {}}, "beta_regularizer": null, "gamma_regularizer": null, "beta_constraint": null, "gamma_constraint": null}, "inbound_nodes": [[["conv2d_272", 0, 0, {}]]]}, {"name": "batch_normalization_275", "class_name": "BatchNormalization", "config": {"name": "batch_normalization_275", "trainable": true, "dtype": "float32", "axis": 3, "momentum": 0.99, "epsilon": 0.001, "center": true, "scale": false, "beta_initializer": {"class_name": "Zeros", "config": {}}, "gamma_initializer": {"class_name": "Ones", "config": {}}, "moving_mean_initializer": {"class_name": "Zeros", "config": {}}, "moving_variance_initializer": {"class_name": "Ones", "config": {}}, "beta_regularizer": null, "gamma_regularizer": null, "beta_constraint": null, "gamma_constraint": null}, "inbound_nodes": [[["conv2d_275", 0, 0, {}]]]}, {"name": "activation_270", "class_name": "Activation", "config": {"name": "activation_270", "trainable": true, "dtype": "float32", "activation": "relu"}, "inbound_nodes": [[["batch_normalization_270", 0, 0, {}]]]}, {"name": "activation_272", "class_name": "Activation", "config": {"name": "activation_272", "trainable": true, "dtype": "float32", "activation": "relu"}, "inbound_nodes": [[["batch_normalization_272", 0, 0, {}]]]}, {"name": "activation_275", "class_name": "Activation", "config": {"name": "activation_275", "trainable": true, "dtype": "float32", "activation": "relu"}, "inbound_nodes": [[["batch_normalization_275", 0, 0, {}]]]}, {"name": "block35_10_mixed", "class_name": "Concatenate", "config": {"name": "block35_10_mixed", "trainable": true, "dtype": "float32", "axis": 3}, "inbound_nodes": [[["activation_270", 0, 0, {}], ["activation_272", 0, 0, {}], ["activation_275", 0, 0, {}]]]}, {"name": "block35_10_conv", "class_name": "Conv2D", "config": {"name": "block35_10_conv", "trainable": true, "dtype": "float32", "filters": 320, "kernel_size": [1, 1], "strides": [1, 1], "padding": "same", "data_format": "channels_last", "dilation_rate": [1, 1], "activation": "linear", "use_bias": true, "kernel_initializer": {"class_name": "VarianceScaling", "config": {"scale": 1.0, "mode": "fan_avg", "distribution": "uniform", "seed": null}}, "bias_initializer": {"class_name": "Zeros", "config": {}}, "kernel_regularizer": null, "bias_regularizer": null, "activity_regularizer": null, "kernel_constraint": null, "bias_constraint": null}, "inbound_nodes": [[["block35_10_mixed", 0, 0, {}]]]}, {"name": "block35_10", "class_name": "Lambda", "config": {"name": "block35_10", "trainable": true, "dtype": "float32", "function": ["4wIAAAAAAAAAAgAAAAMAAABTAAAAcxQAAAB8AGQBGQB8AGQCGQB8ARQAFwBTACkDTukAAAAA6QEA\nAACpACkC2gZpbnB1dHPaBXNjYWxlcgMAAAByAwAAAPpQL3Vzci9sb2NhbC9saWIvcHl0aG9uMy42\nL2Rpc3QtcGFja2FnZXMva2VyYXNfYXBwbGljYXRpb25zL2luY2VwdGlvbl9yZXNuZXRfdjIucHna\nCDxsYW1iZGE+qAAAAPMAAAAA\n", null, null], "function_type": "lambda", "output_shape": [44, 60, 320], "output_shape_type": "raw", "arguments": {"scale": 0.17}}, "inbound_nodes": [[["block35_9_ac", 0, 0, {}], ["block35_10_conv", 0, 0, {}]]]}, {"name": "block35_10_ac", "class_name": "Activation", "config": {"name": "block35_10_ac", "trainable": true, "dtype": "float32", "activation": "relu"}, "inbound_nodes": [[["block35_10", 0, 0, {}]]]}, {"name": "conv2d_277", "class_name": "Conv2D", "config": {"name": "conv2d_277", "trainable": true, "dtype": "float32", "filters": 256, "kernel_size": [1, 1], "strides": [1, 1], "padding": "same", "data_format": "channels_last", "dilation_rate": [1, 1], "activation": "linear", "use_bias": false, "kernel_initializer": {"class_name": "VarianceScaling", "config": {"scale": 1.0, "mode": "fan_avg", "distribution": "uniform", "seed": null}}, "bias_initializer": {"class_name": "Zeros", "config": {}}, "kernel_regularizer": null, "bias_regularizer": null, "activity_regularizer": null, "kernel_constraint": null, "bias_constraint": null}, "inbound_nodes": [[["block35_10_ac", 0, 0, {}]]]}, {"name": "batch_normalization_277", "class_name": "BatchNormalization", "config": {"name": "batch_normalization_277", "trainable": true, "dtype": "float32", "axis": 3, "momentum": 0.99, "epsilon": 0.001, "center": true, "scale": false, "beta_initializer": {"class_name": "Zeros", "config": {}}, "gamma_initializer": {"class_name": "Ones", "config": {}}, "moving_mean_initializer": {"class_name": "Zeros", "config": {}}, "moving_variance_initializer": {"class_name": "Ones", "config": {}}, "beta_regularizer": null, "gamma_regularizer": null, "beta_constraint": null, "gamma_constraint": null}, "inbound_nodes": [[["conv2d_277", 0, 0, {}]]]}, {"name": "activation_277", "class_name": "Activation", "config": {"name": "activation_277", "trainable": true, "dtype": "float32", "activation": "relu"}, "inbound_nodes": [[["batch_normalization_277", 0, 0, {}]]]}, {"name": "conv2d_278", "class_name": "Conv2D", "config": {"name": "conv2d_278", "trainable": true, "dtype": "float32", "filters": 256, "kernel_size": [3, 3], "strides": [1, 1], "padding": "same", "data_format": "channels_last", "dilation_rate": [1, 1], "activation": "linear", "use_bias": false, "kernel_initializer": {"class_name": "VarianceScaling", "config": {"scale": 1.0, "mode": "fan_avg", "distribution": "uniform", "seed": null}}, "bias_initializer": {"class_name": "Zeros", "config": {}}, "kernel_regularizer": null, "bias_regularizer": null, "activity_regularizer": null, "kernel_constraint": null, "bias_constraint": null}, "inbound_nodes": [[["activation_277", 0, 0, {}]]]}, {"name": "batch_normalization_278", "class_name": "BatchNormalization", "config": {"name": "batch_normalization_278", "trainable": true, "dtype": "float32", "axis": 3, "momentum": 0.99, "epsilon": 0.001, "center": true, "scale": false, "beta_initializer": {"class_name": "Zeros", "config": {}}, "gamma_initializer": {"class_name": "Ones", "config": {}}, "moving_mean_initializer": {"class_name": "Zeros", "config": {}}, "moving_variance_initializer": {"class_name": "Ones", "config": {}}, "beta_regularizer": null, "gamma_regularizer": null, "beta_constraint": null, "gamma_constraint": null}, "inbound_nodes": [[["conv2d_278", 0, 0, {}]]]}, {"name": "activation_278", "class_name": "Activation", "config": {"name": "activation_278", "trainable": true, "dtype": "float32", "activation": "relu"}, "inbound_nodes": [[["batch_normalization_278", 0, 0, {}]]]}, {"name": "conv2d_276", "class_name": "Conv2D", "config": {"name": "conv2d_276", "trainable": true, "dtype": "float32", "filters": 384, "kernel_size": [3, 3], "strides": [2, 2], "padding": "valid", "data_format": "channels_last", "dilation_rate": [1, 1], "activation": "linear", "use_bias": false, "kernel_initializer": {"class_name": "VarianceScaling", "config": {"scale": 1.0, "mode": "fan_avg", "distribution": "uniform", "seed": null}}, "bias_initializer": {"class_name": "Zeros", "config": {}}, "kernel_regularizer": null, "bias_regularizer": null, "activity_regularizer": null, "kernel_constraint": null, "bias_constraint": null}, "inbound_nodes": [[["block35_10_ac", 0, 0, {}]]]}, {"name": "conv2d_279", "class_name": "Conv2D", "config": {"name": "conv2d_279", "trainable": true, "dtype": "float32", "filters": 384, "kernel_size": [3, 3], "strides": [2, 2], "padding": "valid", "data_format": "channels_last", "dilation_rate": [1, 1], "activation": "linear", "use_bias": false, "kernel_initializer": {"class_name": "VarianceScaling", "config": {"scale": 1.0, "mode": "fan_avg", "distribution": "uniform", "seed": null}}, "bias_initializer": {"class_name": "Zeros", "config": {}}, "kernel_regularizer": null, "bias_regularizer": null, "activity_regularizer": null, "kernel_constraint": null, "bias_constraint": null}, "inbound_nodes": [[["activation_278", 0, 0, {}]]]}, {"name": "batch_normalization_276", "class_name": "BatchNormalization", "config": {"name": "batch_normalization_276", "trainable": true, "dtype": "float32", "axis": 3, "momentum": 0.99, "epsilon": 0.001, "center": true, "scale": false, "beta_initializer": {"class_name": "Zeros", "config": {}}, "gamma_initializer": {"class_name": "Ones", "config": {}}, "moving_mean_initializer": {"class_name": "Zeros", "config": {}}, "moving_variance_initializer": {"class_name": "Ones", "config": {}}, "beta_regularizer": null, "gamma_regularizer": null, "beta_constraint": null, "gamma_constraint": null}, "inbound_nodes": [[["conv2d_276", 0, 0, {}]]]}, {"name": "batch_normalization_279", "class_name": "BatchNormalization", "config": {"name": "batch_normalization_279", "trainable": true, "dtype": "float32", "axis": 3, "momentum": 0.99, "epsilon": 0.001, "center": true, "scale": false, "beta_initializer": {"class_name": "Zeros", "config": {}}, "gamma_initializer": {"class_name": "Ones", "config": {}}, "moving_mean_initializer": {"class_name": "Zeros", "config": {}}, "moving_variance_initializer": {"class_name": "Ones", "config": {}}, "beta_regularizer": null, "gamma_regularizer": null, "beta_constraint": null, "gamma_constraint": null}, "inbound_nodes": [[["conv2d_279", 0, 0, {}]]]}, {"name": "activation_276", "class_name": "Activation", "config": {"name": "activation_276", "trainable": true, "dtype": "float32", "activation": "relu"}, "inbound_nodes": [[["batch_normalization_276", 0, 0, {}]]]}, {"name": "activation_279", "class_name": "Activation", "config": {"name": "activation_279", "trainable": true, "dtype": "float32", "activation": "relu"}, "inbound_nodes": [[["batch_normalization_279", 0, 0, {}]]]}, {"name": "max_pooling2d_7", "class_name": "MaxPooling2D", "config": {"name": "max_pooling2d_7", "trainable": true, "dtype": "float32", "pool_size": [3, 3], "padding": "valid", "strides": [2, 2], "data_format": "channels_last"}, "inbound_nodes": [[["block35_10_ac", 0, 0, {}]]]}, {"name": "mixed_6a", "class_name": "Concatenate", "config": {"name": "mixed_6a", "trainable": true, "dtype": "float32", "axis": 3}, "inbound_nodes": [[["activation_276", 0, 0, {}], ["activation_279", 0, 0, {}], ["max_pooling2d_7", 0, 0, {}]]]}, {"name": "conv2d_281", "class_name": "Conv2D", "config": {"name": "conv2d_281", "trainable": true, "dtype": "float32", "filters": 128, "kernel_size": [1, 1], "strides": [1, 1], "padding": "same", "data_format": "channels_last", "dilation_rate": [1, 1], "activation": "linear", "use_bias": false, "kernel_initializer": {"class_name": "VarianceScaling", "config": {"scale": 1.0, "mode": "fan_avg", "distribution": "uniform", "seed": null}}, "bias_initializer": {"class_name": "Zeros", "config": {}}, "kernel_regularizer": null, "bias_regularizer": null, "activity_regularizer": null, "kernel_constraint": null, "bias_constraint": null}, "inbound_nodes": [[["mixed_6a", 0, 0, {}]]]}, {"name": "batch_normalization_281", "class_name": "BatchNormalization", "config": {"name": "batch_normalization_281", "trainable": true, "dtype": "float32", "axis": 3, "momentum": 0.99, "epsilon": 0.001, "center": true, "scale": false, "beta_initializer": {"class_name": "Zeros", "config": {}}, "gamma_initializer": {"class_name": "Ones", "config": {}}, "moving_mean_initializer": {"class_name": "Zeros", "config": {}}, "moving_variance_initializer": {"class_name": "Ones", "config": {}}, "beta_regularizer": null, "gamma_regularizer": null, "beta_constraint": null, "gamma_constraint": null}, "inbound_nodes": [[["conv2d_281", 0, 0, {}]]]}, {"name": "activation_281", "class_name": "Activation", "config": {"name": "activation_281", "trainable": true, "dtype": "float32", "activation": "relu"}, "inbound_nodes": [[["batch_normalization_281", 0, 0, {}]]]}, {"name": "conv2d_282", "class_name": "Conv2D", "config": {"name": "conv2d_282", "trainable": true, "dtype": "float32", "filters": 160, "kernel_size": [1, 7], "strides": [1, 1], "padding": "same", "data_format": "channels_last", "dilation_rate": [1, 1], "activation": "linear", "use_bias": false, "kernel_initializer": {"class_name": "VarianceScaling", "config": {"scale": 1.0, "mode": "fan_avg", "distribution": "uniform", "seed": null}}, "bias_initializer": {"class_name": "Zeros", "config": {}}, "kernel_regularizer": null, "bias_regularizer": null, "activity_regularizer": null, "kernel_constraint": null, "bias_constraint": null}, "inbound_nodes": [[["activation_281", 0, 0, {}]]]}, {"name": "batch_normalization_282", "class_name": "BatchNormalization", "config": {"name": "batch_normalization_282", "trainable": true, "dtype": "float32", "axis": 3, "momentum": 0.99, "epsilon": 0.001, "center": true, "scale": false, "beta_initializer": {"class_name": "Zeros", "config": {}}, "gamma_initializer": {"class_name": "Ones", "config": {}}, "moving_mean_initializer": {"class_name": "Zeros", "config": {}}, "moving_variance_initializer": {"class_name": "Ones", "config": {}}, "beta_regularizer": null, "gamma_regularizer": null, "beta_constraint": null, "gamma_constraint": null}, "inbound_nodes": [[["conv2d_282", 0, 0, {}]]]}, {"name": "activation_282", "class_name": "Activation", "config": {"name": "activation_282", "trainable": true, "dtype": "float32", "activation": "relu"}, "inbound_nodes": [[["batch_normalization_282", 0, 0, {}]]]}, {"name": "conv2d_280", "class_name": "Conv2D", "config": {"name": "conv2d_280", "trainable": true, "dtype": "float32", "filters": 192, "kernel_size": [1, 1], "strides": [1, 1], "padding": "same", "data_format": "channels_last", "dilation_rate": [1, 1], "activation": "linear", "use_bias": false, "kernel_initializer": {"class_name": "VarianceScaling", "config": {"scale": 1.0, "mode": "fan_avg", "distribution": "uniform", "seed": null}}, "bias_initializer": {"class_name": "Zeros", "config": {}}, "kernel_regularizer": null, "bias_regularizer": null, "activity_regularizer": null, "kernel_constraint": null, "bias_constraint": null}, "inbound_nodes": [[["mixed_6a", 0, 0, {}]]]}, {"name": "conv2d_283", "class_name": "Conv2D", "config": {"name": "conv2d_283", "trainable": true, "dtype": "float32", "filters": 192, "kernel_size": [7, 1], "strides": [1, 1], "padding": "same", "data_format": "channels_last", "dilation_rate": [1, 1], "activation": "linear", "use_bias": false, "kernel_initializer": {"class_name": "VarianceScaling", "config": {"scale": 1.0, "mode": "fan_avg", "distribution": "uniform", "seed": null}}, "bias_initializer": {"class_name": "Zeros", "config": {}}, "kernel_regularizer": null, "bias_regularizer": null, "activity_regularizer": null, "kernel_constraint": null, "bias_constraint": null}, "inbound_nodes": [[["activation_282", 0, 0, {}]]]}, {"name": "batch_normalization_280", "class_name": "BatchNormalization", "config": {"name": "batch_normalization_280", "trainable": true, "dtype": "float32", "axis": 3, "momentum": 0.99, "epsilon": 0.001, "center": true, "scale": false, "beta_initializer": {"class_name": "Zeros", "config": {}}, "gamma_initializer": {"class_name": "Ones", "config": {}}, "moving_mean_initializer": {"class_name": "Zeros", "config": {}}, "moving_variance_initializer": {"class_name": "Ones", "config": {}}, "beta_regularizer": null, "gamma_regularizer": null, "beta_constraint": null, "gamma_constraint": null}, "inbound_nodes": [[["conv2d_280", 0, 0, {}]]]}, {"name": "batch_normalization_283", "class_name": "BatchNormalization", "config": {"name": "batch_normalization_283", "trainable": true, "dtype": "float32", "axis": 3, "momentum": 0.99, "epsilon": 0.001, "center": true, "scale": false, "beta_initializer": {"class_name": "Zeros", "config": {}}, "gamma_initializer": {"class_name": "Ones", "config": {}}, "moving_mean_initializer": {"class_name": "Zeros", "config": {}}, "moving_variance_initializer": {"class_name": "Ones", "config": {}}, "beta_regularizer": null, "gamma_regularizer": null, "beta_constraint": null, "gamma_constraint": null}, "inbound_nodes": [[["conv2d_283", 0, 0, {}]]]}, {"name": "activation_280", "class_name": "Activation", "config": {"name": "activation_280", "trainable": true, "dtype": "float32", "activation": "relu"}, "inbound_nodes": [[["batch_normalization_280", 0, 0, {}]]]}, {"name": "activation_283", "class_name": "Activation", "config": {"name": "activation_283", "trainable": true, "dtype": "float32", "activation": "relu"}, "inbound_nodes": [[["batch_normalization_283", 0, 0, {}]]]}, {"name": "block17_1_mixed", "class_name": "Concatenate", "config": {"name": "block17_1_mixed", "trainable": true, "dtype": "float32", "axis": 3}, "inbound_nodes": [[["activation_280", 0, 0, {}], ["activation_283", 0, 0, {}]]]}, {"name": "block17_1_conv", "class_name": "Conv2D", "config": {"name": "block17_1_conv", "trainable": true, "dtype": "float32", "filters": 1088, "kernel_size": [1, 1], "strides": [1, 1], "padding": "same", "data_format": "channels_last", "dilation_rate": [1, 1], "activation": "linear", "use_bias": true, "kernel_initializer": {"class_name": "VarianceScaling", "config": {"scale": 1.0, "mode": "fan_avg", "distribution": "uniform", "seed": null}}, "bias_initializer": {"class_name": "Zeros", "config": {}}, "kernel_regularizer": null, "bias_regularizer": null, "activity_regularizer": null, "kernel_constraint": null, "bias_constraint": null}, "inbound_nodes": [[["block17_1_mixed", 0, 0, {}]]]}, {"name": "block17_1", "class_name": "Lambda", "config": {"name": "block17_1", "trainable": true, "dtype": "float32", "function": ["4wIAAAAAAAAAAgAAAAMAAABTAAAAcxQAAAB8AGQBGQB8AGQCGQB8ARQAFwBTACkDTukAAAAA6QEA\nAACpACkC2gZpbnB1dHPaBXNjYWxlcgMAAAByAwAAAPpQL3Vzci9sb2NhbC9saWIvcHl0aG9uMy42\nL2Rpc3QtcGFja2FnZXMva2VyYXNfYXBwbGljYXRpb25zL2luY2VwdGlvbl9yZXNuZXRfdjIucHna\nCDxsYW1iZGE+qAAAAPMAAAAA\n", null, null], "function_type": "lambda", "output_shape": [21, 29, 1088], "output_shape_type": "raw", "arguments": {"scale": 0.1}}, "inbound_nodes": [[["mixed_6a", 0, 0, {}], ["block17_1_conv", 0, 0, {}]]]}, {"name": "block17_1_ac", "class_name": "Activation", "config": {"name": "block17_1_ac", "trainable": true, "dtype": "float32", "activation": "relu"}, "inbound_nodes": [[["block17_1", 0, 0, {}]]]}, {"name": "conv2d_285", "class_name": "Conv2D", "config": {"name": "conv2d_285", "trainable": true, "dtype": "float32", "filters": 128, "kernel_size": [1, 1], "strides": [1, 1], "padding": "same", "data_format": "channels_last", "dilation_rate": [1, 1], "activation": "linear", "use_bias": false, "kernel_initializer": {"class_name": "VarianceScaling", "config": {"scale": 1.0, "mode": "fan_avg", "distribution": "uniform", "seed": null}}, "bias_initializer": {"class_name": "Zeros", "config": {}}, "kernel_regularizer": null, "bias_regularizer": null, "activity_regularizer": null, "kernel_constraint": null, "bias_constraint": null}, "inbound_nodes": [[["block17_1_ac", 0, 0, {}]]]}, {"name": "batch_normalization_285", "class_name": "BatchNormalization", "config": {"name": "batch_normalization_285", "trainable": true, "dtype": "float32", "axis": 3, "momentum": 0.99, "epsilon": 0.001, "center": true, "scale": false, "beta_initializer": {"class_name": "Zeros", "config": {}}, "gamma_initializer": {"class_name": "Ones", "config": {}}, "moving_mean_initializer": {"class_name": "Zeros", "config": {}}, "moving_variance_initializer": {"class_name": "Ones", "config": {}}, "beta_regularizer": null, "gamma_regularizer": null, "beta_constraint": null, "gamma_constraint": null}, "inbound_nodes": [[["conv2d_285", 0, 0, {}]]]}, {"name": "activation_285", "class_name": "Activation", "config": {"name": "activation_285", "trainable": true, "dtype": "float32", "activation": "relu"}, "inbound_nodes": [[["batch_normalization_285", 0, 0, {}]]]}, {"name": "conv2d_286", "class_name": "Conv2D", "config": {"name": "conv2d_286", "trainable": true, "dtype": "float32", "filters": 160, "kernel_size": [1, 7], "strides": [1, 1], "padding": "same", "data_format": "channels_last", "dilation_rate": [1, 1], "activation": "linear", "use_bias": false, "kernel_initializer": {"class_name": "VarianceScaling", "config": {"scale": 1.0, "mode": "fan_avg", "distribution": "uniform", "seed": null}}, "bias_initializer": {"class_name": "Zeros", "config": {}}, "kernel_regularizer": null, "bias_regularizer": null, "activity_regularizer": null, "kernel_constraint": null, "bias_constraint": null}, "inbound_nodes": [[["activation_285", 0, 0, {}]]]}, {"name": "batch_normalization_286", "class_name": "BatchNormalization", "config": {"name": "batch_normalization_286", "trainable": true, "dtype": "float32", "axis": 3, "momentum": 0.99, "epsilon": 0.001, "center": true, "scale": false, "beta_initializer": {"class_name": "Zeros", "config": {}}, "gamma_initializer": {"class_name": "Ones", "config": {}}, "moving_mean_initializer": {"class_name": "Zeros", "config": {}}, "moving_variance_initializer": {"class_name": "Ones", "config": {}}, "beta_regularizer": null, "gamma_regularizer": null, "beta_constraint": null, "gamma_constraint": null}, "inbound_nodes": [[["conv2d_286", 0, 0, {}]]]}, {"name": "activation_286", "class_name": "Activation", "config": {"name": "activation_286", "trainable": true, "dtype": "float32", "activation": "relu"}, "inbound_nodes": [[["batch_normalization_286", 0, 0, {}]]]}, {"name": "conv2d_284", "class_name": "Conv2D", "config": {"name": "conv2d_284", "trainable": true, "dtype": "float32", "filters": 192, "kernel_size": [1, 1], "strides": [1, 1], "padding": "same", "data_format": "channels_last", "dilation_rate": [1, 1], "activation": "linear", "use_bias": false, "kernel_initializer": {"class_name": "VarianceScaling", "config": {"scale": 1.0, "mode": "fan_avg", "distribution": "uniform", "seed": null}}, "bias_initializer": {"class_name": "Zeros", "config": {}}, "kernel_regularizer": null, "bias_regularizer": null, "activity_regularizer": null, "kernel_constraint": null, "bias_constraint": null}, "inbound_nodes": [[["block17_1_ac", 0, 0, {}]]]}, {"name": "conv2d_287", "class_name": "Conv2D", "config": {"name": "conv2d_287", "trainable": true, "dtype": "float32", "filters": 192, "kernel_size": [7, 1], "strides": [1, 1], "padding": "same", "data_format": "channels_last", "dilation_rate": [1, 1], "activation": "linear", "use_bias": false, "kernel_initializer": {"class_name": "VarianceScaling", "config": {"scale": 1.0, "mode": "fan_avg", "distribution": "uniform", "seed": null}}, "bias_initializer": {"class_name": "Zeros", "config": {}}, "kernel_regularizer": null, "bias_regularizer": null, "activity_regularizer": null, "kernel_constraint": null, "bias_constraint": null}, "inbound_nodes": [[["activation_286", 0, 0, {}]]]}, {"name": "batch_normalization_284", "class_name": "BatchNormalization", "config": {"name": "batch_normalization_284", "trainable": true, "dtype": "float32", "axis": 3, "momentum": 0.99, "epsilon": 0.001, "center": true, "scale": false, "beta_initializer": {"class_name": "Zeros", "config": {}}, "gamma_initializer": {"class_name": "Ones", "config": {}}, "moving_mean_initializer": {"class_name": "Zeros", "config": {}}, "moving_variance_initializer": {"class_name": "Ones", "config": {}}, "beta_regularizer": null, "gamma_regularizer": null, "beta_constraint": null, "gamma_constraint": null}, "inbound_nodes": [[["conv2d_284", 0, 0, {}]]]}, {"name": "batch_normalization_287", "class_name": "BatchNormalization", "config": {"name": "batch_normalization_287", "trainable": true, "dtype": "float32", "axis": 3, "momen…
60], "dtype": "float32"}, {"name": "batch_normalization_298/moving_mean", "shape": [160], "dtype": "float32"}, {"name": "batch_normalization_298/moving_variance", "shape": [160], "dtype": "float32"}, {"name": "batch_normalization_299/beta", "shape": [192], "dtype": "float32"}, {"name": "batch_normalization_299/moving_mean", "shape": [192], "dtype": "float32"}, {"name": "batch_normalization_299/moving_variance", "shape": [192], "dtype": "float32"}, {"name": "batch_normalization_300/beta", "shape": [192], "dtype": "float32"}, {"name": "batch_normalization_300/moving_mean", "shape": [192], "dtype": "float32"}, {"name": "batch_normalization_300/moving_variance", "shape": [192], "dtype": "float32"}, {"name": "batch_normalization_301/beta", "shape": [128], "dtype": "float32"}, {"name": "batch_normalization_301/moving_mean", "shape": [128], "dtype": "float32"}, {"name": "batch_normalization_301/moving_variance", "shape": [128], "dtype": "float32"}, {"name": "batch_normalization_302/beta", "shape": [160], "dtype": "float32"}, {"name": "batch_normalization_302/moving_mean", "shape": [160], "dtype": "float32"}, {"name": "batch_normalization_302/moving_variance", "shape": [160], "dtype": "float32"}, {"name": "batch_normalization_303/beta", "shape": [192], "dtype": "float32"}, {"name": "batch_normalization_303/moving_mean", "shape": [192], "dtype": "float32"}, {"name": "batch_normalization_303/moving_variance", "shape": [192], "dtype": "float32"}, {"name": "batch_normalization_304/beta", "shape": [192], "dtype": "float32"}, {"name": "batch_normalization_304/moving_mean", "shape": [192], "dtype": "float32"}, {"name": "batch_normalization_304/moving_variance", "shape": [192], "dtype": "float32"}, {"name": "batch_normalization_305/beta", "shape": [128], "dtype": "float32"}, {"name": "batch_normalization_305/moving_mean", "shape": [128], "dtype": "float32"}, {"name": "batch_normalization_305/moving_variance", "shape": [128], "dtype": "float32"}, {"name": "batch_normalization_306/beta", "shape": [160], "dtype": "float32"}, {"name": "batch_normalization_306/moving_mean", "shape": [160], "dtype": "float32"}, {"name": "batch_normalization_306/moving_variance", "shape": [160], "dtype": "float32"}, {"name": "batch_normalization_307/beta", "shape": [192], "dtype": "float32"}, {"name": "batch_normalization_307/moving_mean", "shape": [192], "dtype": "float32"}, {"name": "batch_normalization_307/moving_variance", "shape": [192], "dtype": "float32"}, {"name": "batch_normalization_308/beta", "shape": [192], "dtype": "float32"}, {"name": "batch_normalization_308/moving_mean", "shape": [192], "dtype": "float32"}, {"name": "batch_normalization_308/moving_variance", "shape": [192], "dtype": "float32"}, {"name": "batch_normalization_309/beta", "shape": [128], "dtype": "float32"}, {"name": "batch_normalization_309/moving_mean", "shape": [128], "dtype": "float32"}, {"name": "batch_normalization_309/moving_variance", "shape": [128], "dtype": "float32"}, {"name": "batch_normalization_310/beta", "shape": [160], "dtype": "float32"}, {"name": "batch_normalization_310/moving_mean", "shape": [160], "dtype": "float32"}, {"name": "batch_normalization_310/moving_variance", "shape": [160], "dtype": "float32"}, {"name": "batch_normalization_311/beta", "shape": [192], "dtype": "float32"}, {"name": "batch_normalization_311/moving_mean", "shape": [192], "dtype": "float32"}, {"name": "batch_normalization_311/moving_variance", "shape": [192], "dtype": "float32"}, {"name": "batch_normalization_312/beta", "shape": [192], "dtype": "float32"}, {"name": "batch_normalization_312/moving_mean", "shape": [192], "dtype": "float32"}, {"name": "batch_normalization_312/moving_variance", "shape": [192], "dtype": "float32"}, {"name": "batch_normalization_313/beta", "shape": [128], "dtype": "float32"}, {"name": "batch_normalization_313/moving_mean", "shape": [128], "dtype": "float32"}, {"name": "batch_normalization_313/moving_variance", "shape": [128], "dtype": "float32"}, {"name": "batch_normalization_314/beta", "shape": [160], "dtype": "float32"}, {"name": "batch_normalization_314/moving_mean", "shape": [160], "dtype": "float32"}, {"name": "batch_normalization_314/moving_variance", "shape": [160], "dtype": "float32"}, {"name": "batch_normalization_315/beta", "shape": [192], "dtype": "float32"}, {"name": "batch_normalization_315/moving_mean", "shape": [192], "dtype": "float32"}, {"name": "batch_normalization_315/moving_variance", "shape": [192], "dtype": "float32"}, {"name": "batch_normalization_316/beta", "shape": [192], "dtype": "float32"}, {"name": "batch_normalization_316/moving_mean", "shape": [192], "dtype": "float32"}, {"name": "batch_normalization_316/moving_variance", "shape": [192], "dtype": "float32"}, {"name": "batch_normalization_317/beta", "shape": [128], "dtype": "float32"}, {"name": "batch_normalization_317/moving_mean", "shape": [128], "dtype": "float32"}, {"name": "batch_normalization_317/moving_variance", "shape": [128], "dtype": "float32"}, {"name": "batch_normalization_318/beta", "shape": [160], "dtype": "float32"}, {"name": "batch_normalization_318/moving_mean", "shape": [160], "dtype": "float32"}, {"name": "batch_normalization_318/moving_variance", "shape": [160], "dtype": "float32"}, {"name": "batch_normalization_319/beta", "shape": [192], "dtype": "float32"}, {"name": "batch_normalization_319/moving_mean", "shape": [192], "dtype": "float32"}, {"name": "batch_normalization_319/moving_variance", "shape": [192], "dtype": "float32"}, {"name": "batch_normalization_320/beta", "shape": [192], "dtype": "float32"}, {"name": "batch_normalization_320/moving_mean", "shape": [192], "dtype": "float32"}, {"name": "batch_normalization_320/moving_variance", "shape": [192], "dtype": "float32"}, {"name": "batch_normalization_321/beta", "shape": [128], "dtype": "float32"}, {"name": "batch_normalization_321/moving_mean", "shape": [128], "dtype": "float32"}, {"name": "batch_normalization_321/moving_variance", "shape": [128], "dtype": "float32"}, {"name": "batch_normalization_322/beta", "shape": [160], "dtype": "float32"}, {"name": "batch_normalization_322/moving_mean", "shape": [160], "dtype": "float32"}, {"name": "batch_normalization_322/moving_variance", "shape": [160], "dtype": "float32"}, {"name": "batch_normalization_323/beta", "shape": [192], "dtype": "float32"}, {"name": "batch_normalization_323/moving_mean", "shape": [192], "dtype": "float32"}, {"name": "batch_normalization_323/moving_variance", "shape": [192], "dtype": "float32"}, {"name": "batch_normalization_324/beta", "shape": [192], "dtype": "float32"}, {"name": "batch_normalization_324/moving_mean", "shape": [192], "dtype": "float32"}, {"name": "batch_normalization_324/moving_variance", "shape": [192], "dtype": "float32"}, {"name": "batch_normalization_325/beta", "shape": [128], "dtype": "float32"}, {"name": "batch_normalization_325/moving_mean", "shape": [128], "dtype": "float32"}, {"name": "batch_normalization_325/moving_variance", "shape": [128], "dtype": "float32"}, {"name": "batch_normalization_326/beta", "shape": [160], "dtype": "float32"}, {"name": "batch_normalization_326/moving_mean", "shape": [160], "dtype": "float32"}, {"name": "batch_normalization_326/moving_variance", "shape": [160], "dtype": "float32"}, {"name": "batch_normalization_327/beta", "shape": [192], "dtype": "float32"}, {"name": "batch_normalization_327/moving_mean", "shape": [192], "dtype": "float32"}, {"name": "batch_normalization_327/moving_variance", "shape": [192], "dtype": "float32"}, {"name": "batch_normalization_328/beta", "shape": [192], "dtype": "float32"}, {"name": "batch_normalization_328/moving_mean", "shape": [192], "dtype": "float32"}, {"name": "batch_normalization_328/moving_variance", "shape": [192], "dtype": "float32"}, {"name": "batch_normalization_329/beta", "shape": [128], "dtype": "float32"}, {"name": "batch_normalization_329/moving_mean", "shape": [128], "dtype": "float32"}, {"name": "batch_normalization_329/moving_variance", "shape": [128], "dtype": "float32"}, {"name": "batch_normalization_330/beta", "shape": [160], "dtype": "float32"}, {"name": "batch_normalization_330/moving_mean", "shape": [160], "dtype": "float32"}, {"name": "batch_normalization_330/moving_variance", "shape": [160], "dtype": "float32"}, {"name": "batch_normalization_331/beta", "shape": [192], "dtype": "float32"}, {"name": "batch_normalization_331/moving_mean", "shape": [192], "dtype": "float32"}, {"name": "batch_normalization_331/moving_variance", "shape": [192], "dtype": "float32"}, {"name": "batch_normalization_332/beta", "shape": [192], "dtype": "float32"}, {"name": "batch_normalization_332/moving_mean", "shape": [192], "dtype": "float32"}, {"name": "batch_normalization_332/moving_variance", "shape": [192], "dtype": "float32"}, {"name": "batch_normalization_333/beta", "shape": [128], "dtype": "float32"}, {"name": "batch_normalization_333/moving_mean", "shape": [128], "dtype": "float32"}, {"name": "batch_normalization_333/moving_variance", "shape": [128], "dtype": "float32"}, {"name": "batch_normalization_334/beta", "shape": [160], "dtype": "float32"}, {"name": "batch_normalization_334/moving_mean", "shape": [160], "dtype": "float32"}, {"name": "batch_normalization_334/moving_variance", "shape": [160], "dtype": "float32"}, {"name": "batch_normalization_335/beta", "shape": [192], "dtype": "float32"}, {"name": "batch_normalization_335/moving_mean", "shape": [192], "dtype": "float32"}, {"name": "batch_normalization_335/moving_variance", "shape": [192], "dtype": "float32"}, {"name": "batch_normalization_336/beta", "shape": [192], "dtype": "float32"}, {"name": "batch_normalization_336/moving_mean", "shape": [192], "dtype": "float32"}, {"name": "batch_normalization_336/moving_variance", "shape": [192], "dtype": "float32"}, {"name": "batch_normalization_337/beta", "shape": [128], "dtype": "float32"}, {"name": "batch_normalization_337/moving_mean", "shape": [128], "dtype": "float32"}, {"name": "batch_normalization_337/moving_variance", "shape": [128], "dtype": "float32"}, {"name": "batch_normalization_338/beta", "shape": [160], "dtype": "float32"}, {"name": "batch_normalization_338/moving_mean", "shape": [160], "dtype": "float32"}, {"name": "batch_normalization_338/moving_variance", "shape": [160], "dtype": "float32"}, {"name": "batch_normalization_339/beta", "shape": [192], "dtype": "float32"}, {"name": "batch_normalization_339/moving_mean", "shape": [192], "dtype": "float32"}, {"name": "batch_normalization_339/moving_variance", "shape": [192], "dtype": "float32"}, {"name": "batch_normalization_340/beta", "shape": [192], "dtype": "float32"}, {"name": "batch_normalization_340/moving_mean", "shape": [192], "dtype": "float32"}, {"name": "batch_normalization_340/moving_variance", "shape": [192], "dtype": "float32"}, {"name": "batch_normalization_341/beta", "shape": [128], "dtype": "float32"}, {"name": "batch_normalization_341/moving_mean", "shape": [128], "dtype": "float32"}, {"name": "batch_normalization_341/moving_variance", "shape": [128], "dtype": "float32"}, {"name": "batch_normalization_342/beta", "shape": [160], "dtype": "float32"}, {"name": "batch_normalization_342/moving_mean", "shape": [160], "dtype": "float32"}, {"name": "batch_normalization_342/moving_variance", "shape": [160], "dtype": "float32"}, {"name": "batch_normalization_343/beta", "shape": [192], "dtype": "float32"}, {"name": "batch_normalization_343/moving_mean", "shape": [192], "dtype": "float32"}, {"name": "batch_normalization_343/moving_variance", "shape": [192], "dtype": "float32"}, {"name": "batch_normalization_344/beta", "shape": [192], "dtype": "float32"}, {"name": "batch_normalization_344/moving_mean", "shape": [192], "dtype": "float32"}, {"name": "batch_normalization_344/moving_variance", "shape": [192], "dtype": "float32"}, {"name": "batch_normalization_345/beta", "shape": [128], "dtype": "float32"}, {"name": "batch_normalization_345/moving_mean", "shape": [128], "dtype": "float32"}, {"name": "batch_normalization_345/moving_variance", "shape": [128], "dtype": "float32"}, {"name": "batch_normalization_346/beta", "shape": [160], "dtype": "float32"}, {"name": "batch_normalization_346/moving_mean", "shape": [160], "dtype": "float32"}, {"name": "batch_normalization_346/moving_variance", "shape": [160], "dtype": "float32"}, {"name": "batch_normalization_347/beta", "shape": [192], "dtype": "float32"}, {"name": "batch_normalization_347/moving_mean", "shape": [192], "dtype": "float32"}, {"name": "batch_normalization_347/moving_variance", "shape": [192], "dtype": "float32"}, {"name": "batch_normalization_348/beta", "shape": [192], "dtype": "float32"}, {"name": "batch_normalization_348/moving_mean", "shape": [192], "dtype": "float32"}, {"name": "batch_normalization_348/moving_variance", "shape": [192], "dtype": "float32"}, {"name": "batch_normalization_349/beta", "shape": [128], "dtype": "float32"}, {"name": "batch_normalization_349/moving_mean", "shape": [128], "dtype": "float32"}, {"name": "batch_normalization_349/moving_variance", "shape": [128], "dtype": "float32"}, {"name": "batch_normalization_350/beta", "shape": [160], "dtype": "float32"}, {"name": "batch_normalization_350/moving_mean", "shape": [160], "dtype": "float32"}, {"name": "batch_normalization_350/moving_variance", "shape": [160], "dtype": "float32"}, {"name": "batch_normalization_351/beta", "shape": [192], "dtype": "float32"}, {"name": "batch_normalization_351/moving_mean", "shape": [192], "dtype": "float32"}, {"name": "batch_normalization_351/moving_variance", "shape": [192], "dtype": "float32"}, {"name": "batch_normalization_352/beta", "shape": [192], "dtype": "float32"}, {"name": "batch_normalization_352/moving_mean", "shape": [192], "dtype": "float32"}, {"name": "batch_normalization_352/moving_variance", "shape": [192], "dtype": "float32"}, {"name": "batch_normalization_353/beta", "shape": [128], "dtype": "float32"}, {"name": "batch_normalization_353/moving_mean", "shape": [128], "dtype": "float32"}, {"name": "batch_normalization_353/moving_variance", "shape": [128], "dtype": "float32"}, {"name": "batch_normalization_354/beta", "shape": [160], "dtype": "float32"}, {"name": "batch_normalization_354/moving_mean", "shape": [160], "dtype": "float32"}, {"name": "batch_normalization_354/moving_variance", "shape": [160], "dtype": "float32"}, {"name": "batch_normalization_355/beta", "shape": [192], "dtype": "float32"}, {"name": "batch_normalization_355/moving_mean", "shape": [192], "dtype": "float32"}, {"name": "batch_normalization_355/moving_variance", "shape": [192], "dtype": "float32"}, {"name": "batch_normalization_356/beta", "shape": [192], "dtype": "float32"}, {"name": "batch_normalization_356/moving_mean", "shape": [192], "dtype": "float32"}, {"name": "batch_normalization_356/moving_variance", "shape": [192], "dtype": "float32"}, {"name": "batch_normalization_357/beta", "shape": [128], "dtype": "float32"}, {"name": "batch_normalization_357/moving_mean", "shape": [128], "dtype": "float32"}, {"name": "batch_normalization_357/moving_variance", "shape": [128], "dtype": "float32"}, {"name": "batch_normalization_358/beta", "shape": [160], "dtype": "float32"}, {"name": "batch_normalization_358/moving_mean", "shape": [160], "dtype": "float32"}, {"name": "batch_normalization_358/moving_variance", "shape": [160], "dtype": "float32"}, {"name": "batch_normalization_359/beta", "shape": [192], "dtype": "float32"}, {"name": "batch_normalization_359/moving_mean", "shape": [192], "dtype": "float32"}, {"name": "batch_normalization_359/moving_variance", "shape": [192], "dtype": "float32"}, {"name": "batch_normalization_360/beta", "shape": [256], "dtype": "float32"}, {"name": "batch_normalization_360/moving_mean", "shape": [256], "dtype": "float32"}, {"name": "batch_normalization_360/moving_variance", "shape": [256], "dtype": "float32"}, {"name": "batch_normalization_361/beta", "shape": [384], "dtype": "float32"}, {"name": "batch_normalization_361/moving_mean", "shape": [384], "dtype": "float32"}, {"name": "batch_normalization_361/moving_variance", "shape": [384], "dtype": "float32"}, {"name": "batch_normalization_362/beta", "shape": [256], "dtype": "float32"}, {"name": "batch_normalization_362/moving_mean", "shape": [256], "dtype": "float32"}, {"name": "batch_normalization_362/moving_variance", "shape": [256], "dtype": "float32"}, {"name": "batch_normalization_363/beta", "shape": [288], "dtype": "float32"}, {"name": "batch_normalization_363/moving_mean", "shape": [288], "dtype": "float32"}, {"name": "batch_normalization_363/moving_variance", "shape": [288], "dtype": "float32"}, {"name": "batch_normalization_364/beta", "shape": [256], "dtype": "float32"}, {"name": "batch_normalization_364/moving_mean", "shape": [256], "dtype": "float32"}, {"name": "batch_normalization_364/moving_variance", "shape": [256], "dtype": "float32"}, {"name": "batch_normalization_365/beta", "shape": [288], "dtype": "float32"}, {"name": "batch_normalization_365/moving_mean", "shape": [288], "dtype": "float32"}, {"name": "batch_normalization_365/moving_variance", "shape": [288], "dtype": "float32"}, {"name": "batch_normalization_366/beta", "shape": [320], "dtype": "float32"}, {"name": "batch_normalization_366/moving_mean", "shape": [320], "dtype": "float32"}, {"name": "batch_normalization_366/moving_variance", "shape": [320], "dtype": "float32"}, {"name": "batch_normalization_367/beta", "shape": [192], "dtype": "float32"}, {"name": "batch_normalization_367/moving_mean", "shape": [192], "dtype": "float32"}, {"name": "batch_normalization_367/moving_variance", "shape": [192], "dtype": "float32"}, {"name": "batch_normalization_368/beta", "shape": [192], "dtype": "float32"}, {"name": "batch_normalization_368/moving_mean", "shape": [192], "dtype": "float32"}, {"name": "batch_normalization_368/moving_variance", "shape": [192], "dtype": "float32"}, {"name": "batch_normalization_369/beta", "shape": [224], "dtype": "float32"}, {"name": "batch_normalization_369/moving_mean", "shape": [224], "dtype": "float32"}, {"name": "batch_normalization_369/moving_variance", "shape": [224], "dtype": "float32"}, {"name": "batch_normalization_370/beta", "shape": [256], "dtype": "float32"}, {"name": "batch_normalization_370/moving_mean", "shape": [256], "dtype": "float32"}, {"name": "batch_normalization_370/moving_variance", "shape": [256], "dtype": "float32"}, {"name": "batch_normalization_371/beta", "shape": [192], "dtype": "float32"}, {"name": "batch_normalization_371/moving_mean", "shape": [192], "dtype": "float32"}, {"name": "batch_normalization_371/moving_variance", "shape": [192], "dtype": "float32"}, {"name": "batch_normalization_372/beta", "shape": [192], "dtype": "float32"}, {"name": "batch_normalization_372/moving_mean", "shape": [192], "dtype": "float32"}, {"name": "batch_normalization_372/moving_variance", "shape": [192], "dtype": "float32"}, {"name": "batch_normalization_373/beta", "shape": [224], "dtype": "float32"}, {"name": "batch_normalization_373/moving_mean", "shape": [224], "dtype": "float32"}, {"name": "batch_normalization_373/moving_variance", "shape": [224], "dtype": "float32"}, {"name": "batch_normalization_374/beta", "shape": [256], "dtype": "float32"}, {"name": "batch_normalization_374/moving_mean", "shape": [256], "dtype": "float32"}, {"name": "batch_normalization_374/moving_variance", "shape": [256], "dtype": "float32"}, {"name": "batch_normalization_375/beta", "shape": [192], "dtype": "float32"}, {"name": "batch_normalization_375/moving_mean", "shape": [192], "dtype": "float32"}, {"name": "batch_normalization_375/moving_variance", "shape": [192], "dtype": "float32"}, {"name": "batch_normalization_376/beta", "shape": [192], "dtype": "float32"}, {"name": "batch_normalization_376/moving_mean", "shape": [192], "dtype": "float32"}, {"name": "batch_normalization_376/moving_variance", "shape": [192], "dtype": "float32"}, {"name": "batch_normalization_377/beta", "shape": [224], "dtype": "float32"}, {"name": "batch_normalization_377/moving_mean", "shape": [224], "dtype": "float32"}, {"name": "batch_normalization_377/moving_variance", "shape": [224], "dtype": "float32"}, {"name": "batch_normalization_378/beta", "shape": [256], "dtype": "float32"}, {"name": "batch_normalization_378/moving_mean", "shape": [256], "dtype": "float32"}, {"name": "batch_normalization_378/moving_variance", "shape": [256], "dtype": "float32"}, {"name": "batch_normalization_379/beta", "shape": [192], "dtype": "float32"}, {"name": "batch_normalization_379/moving_mean", "shape": [192], "dtype": "float32"}, {"name": "batch_normalization_379/moving_variance", "shape": [192], "dtype": "float32"}, {"name": "batch_normalization_380/beta", "shape": [192], "dtype": "float32"}, {"name": "batch_normalization_380/moving_mean", "shape": [192], "dtype": "float32"}, {"name": "batch_normalization_380/moving_variance", "shape": [192], "dtype": "float32"}, {"name": "batch_normalization_381/beta", "shape": [224], "dtype": "float32"}, {"name": "batch_normalization_381/moving_mean", "shape": [224], "dtype": "float32"}, {"name": "batch_normalization_381/moving_variance", "shape": [224], "dtype": "float32"}, {"name": "batch_normalization_382/beta", "shape": [256], "dtype": "float32"}, {"name": "batch_normalization_382/moving_mean", "shape": [256], "dtype": "float32"}, {"name": "batch_normalization_382/moving_variance", "shape": [256], "dtype": "float32"}, {"name": "batch_normalization_383/beta", "shape": [192], "dtype": "float32"}, {"name": "batch_normalization_383/moving_mean", "shape": [192], "dtype": "float32"}, {"name": "batch_normalization_383/moving_variance", "shape": [192], "dtype": "float32"}, {"name": "batch_normalization_384/beta", "shape": [192], "dtype": "float32"}, {"name": "batch_normalization_384/moving_mean", "shape": [192], "dtype": "float32"}, {"name": "batch_normalization_384/moving_variance", "shape": [192], "dtype": "float32"}, {"name": "batch_normalization_385/beta", "shape": [224], "dtype": "float32"}, {"name": "batch_normalization_385/moving_mean", "shape": [224], "dtype": "float32"}, {"name": "batch_normalization_385/moving_variance", "shape": [224], "dtype": "float32"}, {"name": "batch_normalization_386/beta", "shape": [256], "dtype": "float32"}, {"name": "batch_normalization_386/moving_mean", "shape": [256], "dtype": "float32"}, {"name": "batch_normalization_386/moving_variance", "shape": [256], "dtype": "float32"}, {"name": "batch_normalization_387/beta", "shape": [192], "dtype": "float32"}, {"name": "batch_normalization_387/moving_mean", "shape": [192], "dtype": "float32"}, {"name": "batch_normalization_387/moving_variance", "shape": [192], "dtype": "float32"}, {"name": "batch_normalization_388/beta", "shape": [192], "dtype": "float32"}, {"name": "batch_normalization_388/moving_mean", "shape": [192], "dtype": "float32"}, {"name": "batch_normalization_388/moving_variance", "shape": [192], "dtype": "float32"}, {"name": "batch_normalization_389/beta", "shape": [224], "dtype": "float32"}, {"name": "batch_normalization_389/moving_mean", "shape": [224], "dtype": "float32"}, {"name": "batch_normalization_389/moving_variance", "shape": [224], "dtype": "float32"}, {"name": "batch_normalization_390/beta", "shape": [256], "dtype": "float32"}, {"name": "batch_normalization_390/moving_mean", "shape": [256], "dtype": "float32"}, {"name": "batch_normalization_390/moving_variance", "shape": [256], "dtype": "float32"}, {"name": "batch_normalization_391/beta", "shape": [192], "dtype": "float32"}, {"name": "batch_normalization_391/moving_mean", "shape": [192], "dtype": "float32"}, {"name": "batch_normalization_391/moving_variance", "shape": [192], "dtype": "float32"}, {"name": "batch_normalization_392/beta", "shape": [192], "dtype": "float32"}, {"name": "batch_normalization_392/moving_mean", "shape": [192], "dtype": "float32"}, {"name": "batch_normalization_392/moving_variance", "shape": [192], "dtype": "float32"}, {"name": "batch_normalization_393/beta", "shape": [224], "dtype": "float32"}, {"name": "batch_normalization_393/moving_mean", "shape": [224], "dtype": "float32"}, {"name": "batch_normalization_393/moving_variance", "shape": [224], "dtype": "float32"}, {"name": "batch_normalization_394/beta", "shape": [256], "dtype": "float32"}, {"name": "batch_normalization_394/moving_mean", "shape": [256], "dtype": "float32"}, {"name": "batch_normalization_394/moving_variance", "shape": [256], "dtype": "float32"}, {"name": "batch_normalization_395/beta", "shape": [192], "dtype": "float32"}, {"name": "batch_normalization_395/moving_mean", "shape": [192], "dtype": "float32"}, {"name": "batch_normalization_395/moving_variance", "shape": [192], "dtype": "float32"}, {"name": "batch_normalization_396/beta", "shape": [192], "dtype": "float32"}, {"name": "batch_normalization_396/moving_mean", "shape": [192], "dtype": "float32"}, {"name": "batch_normalization_396/moving_variance", "shape": [192], "dtype": "float32"}, {"name": "batch_normalization_397/beta", "shape": [224], "dtype": "float32"}, {"name": "batch_normalization_397/moving_mean", "shape": [224], "dtype": "float32"}, {"name": "batch_normalization_397/moving_variance", "shape": [224], "dtype": "float32"}, {"name": "batch_normalization_398/beta", "shape": [256], "dtype": "float32"}, {"name": "batch_normalization_398/moving_mean", "shape": [256], "dtype": "float32"}, {"name": "batch_normalization_398/moving_variance", "shape": [256], "dtype": "float32"}, {"name": "batch_normalization_399/beta", "shape": [192], "dtype": "float32"}, {"name": "batch_normalization_399/moving_mean", "shape": [192], "dtype": "float32"}, {"name": "batch_normalization_399/moving_variance", "shape": [192], "dtype": "float32"}, {"name": "batch_normalization_400/beta", "shape": [192], "dtype": "float32"}, {"name": "batch_normalization_400/moving_mean", "shape": [192], "dtype": "float32"}, {"name": "batch_normalization_400/moving_variance", "shape": [192], "dtype": "float32"}, {"name": "batch_normalization_401/beta", "shape": [224], "dtype": "float32"}, {"name": "batch_normalization_401/moving_mean", "shape": [224], "dtype": "float32"}, {"name": "batch_normalization_401/moving_variance", "shape": [224], "dtype": "float32"}, {"name": "batch_normalization_402/beta", "shape": [256], "dtype": "float32"}, {"name": "batch_normalization_402/moving_mean", "shape": [256], "dtype": "float32"}, {"name": "batch_normalization_402/moving_variance", "shape": [256], "dtype": "float32"}, {"name": "batch_normalization_403/beta", "shape": [192], "dtype": "float32"}, {"name": "batch_normalization_403/moving_mean", "shape": [192], "dtype": "float32"}, {"name": "batch_normalization_403/moving_variance", "shape": [192], "dtype": "float32"}, {"name": "batch_normalization_404/beta", "shape": [192], "dtype": "float32"}, {"name": "batch_normalization_404/moving_mean", "shape": [192], "dtype": "float32"}, {"name": "batch_normalization_404/moving_variance", "shape": [192], "dtype": "float32"}, {"name": "batch_normalization_405/beta", "shape": [224], "dtype": "float32"}, {"name": "batch_normalization_405/moving_mean", "shape": [224], "dtype": "float32"}, {"name": "batch_normalization_405/moving_variance", "shape": [224], "dtype": "float32"}, {"name": "batch_normalization_406/beta", "shape": [256], "dtype": "float32"}, {"name": "batch_normalization_406/moving_mean", "shape": [256], "dtype": "float32"}, {"name": "batch_normalization_406/moving_variance", "shape": [256], "dtype": "float32"}, {"name": "block17_10_conv/kernel", "shape": [1, 1, 384, 1088], "dtype": "float32"}, {"name": "block17_10_conv/bias", "shape": [1088], "dtype": "float32"}, {"name": "block17_11_conv/kernel", "shape": [1, 1, 384, 1088], "dtype": "float32"}, {"name": "block17_11_conv/bias", "shape": [1088], "dtype": "float32"}, {"name": "block17_12_conv/kernel", "shape": [1, 1, 384, 1088], "dtype": "float32"}, {"name": "block17_12_conv/bias", "shape": [1088], "dtype": "float32"}, {"name": "block17_13_conv/kernel", "shape": [1, 1, 384, 1088], "dtype": "float32"}, {"name": "block17_13_conv/bias", "shape": [1088], "dtype": "float32"}, {"name": "block17_14_conv/kernel", "shape": [1, 1, 384, 1088], "dtype": "float32"}, {"name": "block17_14_conv/bias", "shape": [1088], "dtype": "float32"}, {"name": "block17_15_conv/kernel", "shape": [1, 1, 384, 1088], "dtype": "float32"}, {"name": "block17_15_conv/bias", "shape": [1088], "dtype": "float32"}, {"name": "block17_16_conv/kernel", "shape": [1, 1, 384, 1088], "dtype": "float32"}, {"name": "block17_16_conv/bias", "shape": [1088], "dtype": "float32"}, {"name": "block17_17_conv/kernel", "shape": [1, 1, 384, 1088], "dtype": "float32"}, {"name": "block17_17_conv/bias", "shape": [1088], "dtype": "float32"}, {"name": "block17_18_conv/kernel", "shape": [1, 1, 384, 1088], "dtype": "float32"}, {"name": "block17_18_conv/bias", "shape": [1088], "dtype": "float32"}, {"name": "block17_19_conv/kernel", "shape": [1, 1, 384, 1088], "dtype": "float32"}, {"name": "block17_19_conv/bias", "shape": [1088], "dtype": "float32"}, {"name": "block17_1_conv/kernel", "shape": [1, 1, 384, 1088], "dtype": "float32"}, {"name": "block17_1_conv/bias", "shape": [1088], "dtype": "float32"}, {"name": "block17_20_conv/kernel", "shape": [1, 1, 384, 1088], "dtype": "float32"}, {"name": "block17_20_conv/bias", "shape": [1088], "dtype": "float32"}, {"name": "block17_2_conv/kernel", "shape": [1, 1, 384, 1088], "dtype": "float32"}, {"name": "block17_2_conv/bias", "shape": [1088], "dtype": "float32"}, {"name": "block17_3_conv/kernel", "shape": [1, 1, 384, 1088], "dtype": "float32"}, {"name": "block17_3_conv/bias", "shape": [1088], "dtype": "float32"}, {"name": "block17_4_conv/kernel", "shape": [1, 1, 384, 1088], "dtype": "float32"}, {"name": "block17_4_conv/bias", "shape": [1088], "dtype": "float32"}, {"name": "block17_5_conv/kernel", "shape": [1, 1, 384, 1088], "dtype": "float32"}, {"name": "block17_5_conv/bias", "shape": [1088], "dtype": "float32"}, {"name": "block17_6_conv/kernel", "shape": [1, 1, 384, 1088], "dtype": "float32"}, {"name": "block17_6_conv/bias", "shape": [1088], "dtype": "float32"}, {"name": "block17_7_conv/kernel", "shape": [1, 1, 384, 1088], "dtype": "float32"}, {"name": "block17_7_conv/bias", "shape": [1088], "dtype": "float32"}, {"name": "block17_8_conv/kernel", "shape": [1, 1, 384, 1088], "dtype": "float32"}, {"name": "block17_8_conv/bias", "shape": [1088], "dtype": "float32"}, {"name": "block17_9_conv/kernel", "shape": [1, 1, 384, 1088], "dtype": "float32"}, {"name": "block17_9_conv/bias", "shape": [1088], "dtype": "float32"}, {"name": "block35_10_conv/kernel", "shape": [1, 1, 128, 320], "dtype": "float32"}, {"name": "block35_10_conv/bias", "shape": [320], "dtype": "float32"}, {"name": "block35_1_conv/kernel", "shape": [1, 1, 128, 320], "dtype": "float32"}, {"name": "block35_1_conv/bias", "shape": [320], "dtype": "float32"}, {"name": "block35_2_conv/kernel", "shape": [1, 1, 128, 320], "dtype": "float32"}, {"name": "block35_2_conv/bias", "shape": [320], "dtype": "float32"}, {"name": "block35_3_conv/kernel", "shape": [1, 1, 128, 320], "dtype": "float32"}, {"name": "block35_3_conv/bias", "shape": [320], "dtype": "float32"}, {"name": "block35_4_conv/kernel", "shape": [1, 1, 128, 320], "dtype": "float32"}, {"name": "block35_4_conv/bias", "shape": [320], "dtype": "float32"}, {"name": "block35_5_conv/kernel", "shape": [1, 1, 128, 320], "dtype": "float32"}, {"name": "block35_5_conv/bias", "shape": [320], "dtype": "float32"}, {"name": "block35_6_conv/kernel", "shape": [1, 1, 128, 320], "dtype": "float32"}, {"name": "block35_6_conv/bias", "shape": [320], "dtype": "float32"}, {"name": "block35_7_conv/kernel", "shape": [1, 1, 128, 320], "dtype": "float32"}, {"name": "block35_7_conv/bias", "shape": [320], "dtype": "float32"}, {"name": "block35_8_conv/kernel", "shape": [1, 1, 128, 320], "dtype": "float32"}, {"name": "block35_8_conv/bias", "shape": [320], "dtype": "float32"}, {"name": "block35_9_conv/kernel", "shape": [1, 1, 128, 320], "dtype": "float32"}, {"name": "block35_9_conv/bias", "shape": [320], "dtype": "float32"}, {"name": "block8_10_conv/kernel", "shape": [1, 1, 448, 2080], "dtype": "float32"}, {"name": "block8_10_conv/bias", "shape": [2080], "dtype": "float32"}, {"name": "block8_1_conv/kernel", "shape": [1, 1, 448, 2080], "dtype": "float32"}, {"name": "block8_1_conv/bias", "shape": [2080], "dtype": "float32"}, {"name": "block8_2_conv/kernel", "shape": [1, 1, 448, 2080], "dtype": "float32"}, {"name": "block8_2_conv/bias", "shape": [2080], "dtype": "float32"}, {"name": "block8_3_conv/kernel", "shape": [1, 1, 448, 2080], "dtype": "float32"}, {"name": "block8_3_conv/bias", "shape": [2080], "dtype": "float32"}, {"name": "block8_4_conv/kernel", "shape": [1, 1, 448, 2080], "dtype": "float32"}, {"name": "block8_4_conv/bias", "shape": [2080], "dtype": "float32"}, {"name": "block8_5_conv/kernel", "shape": [1, 1, 448, 2080], "dtype": "float32"}, {"name": "block8_5_conv/bias", "shape": [2080], "dtype": "float32"}, {"name": "block8_6_conv/kernel", "shape": [1, 1, 448, 2080], "dtype": "float32"}, {"name": "block8_6_conv/bias", "shape": [2080], "dtype": "float32"}, {"name": "block8_7_conv/kernel", "shape": [1, 1, 448, 2080], "dtype": "float32"}, {"name": "block8_7_conv/bias", "shape": [2080], "dtype": "float32"}, {"name": "block8_8_conv/kernel", "shape": [1, 1, 448, 2080], "dtype": "float32"}, {"name": "block8_8_conv/bias", "shape": [2080], "dtype": "float32"}, {"name": "block8_9_conv/kernel", "shape": [1, 1, 448, 2080], "dtype": "float32"}, {"name": "block8_9_conv/bias", "shape": [2080], "dtype": "float32"}, {"name": "conv2d_204/kernel", "shape": [3, 3, 3, 32], "dtype": "float32"}, {"name": "conv2d_205/kernel", "shape": [3, 3, 32, 32], "dtype": "float32"}, {"name": "conv2d_206/kernel", "shape": [3, 3, 32, 64], "dtype": "float32"}, {"name": "conv2d_207/kernel", "shape": [1, 1, 64, 80], "dtype": "float32"}, {"name": "conv2d_208/kernel", "shape": [3, 3, 80, 192], "dtype": "float32"}, {"name": "conv2d_209/kernel", "shape": [1, 1, 192, 96], "dtype": "float32"}, {"name": "conv2d_210/kernel", "shape": [1, 1, 192, 48], "dtype": "float32"}, {"name": "conv2d_211/kernel", "shape": [5, 5, 48, 64], "dtype": "float32"}, {"name": "conv2d_212/kernel", "shape": [1, 1, 192, 64], "dtype": "float32"}, {"name": "conv2d_213/kernel", "shape": [3, 3, 64, 96], "dtype": "float32"}, {"name": "conv2d_214/kernel", "shape": [3, 3, 96, 96], "dtype": "float32"}, {"name": "conv2d_215/kernel", "shape": [1, 1, 192, 64], "dtype": "float32"}, {"name": "conv2d_216/kernel", "shape": [1, 1, 320, 32], "dtype": "float32"}, {"name": "conv2d_217/kernel", "shape": [1, 1, 320, 32], "dtype": "float32"}, {"name": "conv2d_218/kernel", "shape": [3, 3, 32, 32], "dtype": "float32"}, {"name": "conv2d_219/kernel", "shape": [1, 1, 320, 32], "dtype": "float32"}, {"name": "conv2d_220/kernel", "shape": [3, 3, 32, 48], "dtype": "float32"}, {"name": "conv2d_221/kernel", "shape": [3, 3, 48, 64], "dtype": "float32"}, {"name": "conv2d_222/kernel", "shape": [1, 1, 320, 32], "dtype": "float32"}, {"name": "conv2d_223/kernel", "shape": [1, 1, 320, 32], "dtype": "float32"}, {"name": "conv2d_224/kernel", "shape": [3, 3, 32, 32], "dtype": "float32"}, {"name": "conv2d_225/kernel", "shape": [1, 1, 320, 32], "dtype": "float32"}, {"name": "conv2d_226/kernel", "shape": [3, 3, 32, 48], "dtype": "float32"}, {"name": "conv2d_227/kernel", "shape": [3, 3, 48, 64], "dtype": "float32"}, {"name": "conv2d_228/kernel", "shape": [1, 1, 320, 32], "dtype": "float32"}, {"name": "conv2d_229/kernel", "shape": [1, 1, 320, 32], "dtype": "float32"}, {"name": "conv2d_230/kernel", "shape": [3, 3, 32, 32], "dtype": "float32"}, {"name": "conv2d_231/kernel", "shape": [1, 1, 320, 32], "dtype": "float32"}, {"name": "conv2d_232/kernel", "shape": [3, 3, 32, 48], "dtype": "float32"}, {"name": "conv2d_233/kernel", "shape": [3, 3, 48, 64], "dtype": "float32"}, {"name": "conv2d_234/kernel", "shape": [1, 1, 320, 32], "dtype": "float32"}, {"name": "conv2d_235/kernel", "shape": [1, 1, 320, 32], "dtype": "float32"}, {"name": "conv2d_236/kernel", "shape": [3, 3, 32, 32], "dtype": "float32"}, {"name": "conv2d_237/kernel", "shape": [1, 1, 320, 32], "dtype": "float32"}, {"name": "conv2d_238/kernel", "shape": [3, 3, 32, 48], "dtype": "float32"}, {"name": "conv2d_239/kernel", "shape": [3, 3, 48, 64], "dtype": "float32"}, {"name": "conv2d_240/kernel", "shape": [1, 1, 320, 32], "dtype": "float32"}, {"name": "conv2d_241/kernel", "shape": [1, 1, 320, 32], "dtype": "float32"}, {"name": "conv2d_242/kernel", "shape": [3, 3, 32, 32], "dtype": "float32"}, {"name": "conv2d_243/kernel", "shape": [1, 1, 320, 32], "dtype": "float32"}, {"name": "conv2d_244/kernel", "shape": [3, 3, 32, 48], "dtype": "float32"}, {"name": "conv2d_245/kernel", "shape": [3, 3, 48, 64], "dtype": "float32"}, {"name": "conv2d_246/kernel", "shape": [1, 1, 320, 32], "dtype": "float32"}, {"name": "conv2d_247/kernel", "shape": [1, 1, 320, 32], "dtype": "float32"}, {"name": "conv2d_248/kernel", "shape": [3, 3, 32, 32], "dtype": "float32"}, {"name": "conv2d_249/kernel", "shape": [1, 1, 320, 32], "dtype": "float32"}, {"name": "conv2d_250/kernel", "shape": [3, 3, 32, 48], "dtype": "float32"}, {"name": "conv2d_251/kernel", "shape": [3, 3, 48, 64], "dtype": "float32"}, {"name": "conv2d_252/kernel", "shape": [1, 1, 320, 32], "dtype": "float32"}, {"name": "conv2d_253/kernel", "shape": [1, 1, 320, 32], "dtype": "float32"}, {"name": "conv2d_254/kernel", "shape": [3, 3, 32, 32], "dtype": "float32"}, {"name": "conv2d_255/kernel", "shape": [1, 1, 320, 32], "dtype": "float32"}, {"name": "conv2d_256/kernel", "shape": [3, 3, 32, 48], "dtype": "float32"}, {"name": "conv2d_257/kernel", "shape": [3, 3, 48, 64], "dtype": "float32"}, {"name": "conv2d_258/kernel", "shape": [1, 1, 320, 32], "dtype": "float32"}, {"name": "conv2d_259/kernel", "shape": [1, 1, 320, 32], "dtype": "float32"}, {"name": "conv2d_260/kernel", "shape": [3, 3, 32, 32], "dtype": "float32"}, {"name": "conv2d_261/kernel", "shape": [1, 1, 320, 32], "dtype": "float32"}, {"name": "conv2d_262/kernel", "shape": [3, 3, 32, 48], "dtype": "float32"}, {"name": "conv2d_263/kernel", "shape": [3, 3, 48, 64], "dtype": "float32"}, {"name": "conv2d_264/kernel", "shape": [1, 1, 320, 32], "dtype": "float32"}, {"name": "conv2d_265/kernel", "shape": [1, 1, 320, 32], "dtype": "float32"}, {"name": "conv2d_266/kernel", "shape": [3, 3, 32, 32], "dtype": "float32"}, {"name": "conv2d_267/kernel", "shape": [1, 1, 320, 32], "dtype": "float32"}, {"name": "conv2d_268/kernel", "shape": [3, 3, 32, 48], "dtype": "float32"}, {"name": "conv2d_269/kernel", "shape": [3, 3, 48, 64], "dtype": "float32"}, {"name": "conv2d_270/kernel", "shape": [1, 1, 320, 32], "dtype": "float32"}, {"name": "conv2d_271/kernel", "shape": [1, 1, 320, 32], "dtype": "float32"}, {"name": "conv2d_272/kernel", "shape": [3, 3, 32, 32], "dtype": "float32"}, {"name": "conv2d_273/kernel", "shape": [1, 1, 320, 32], "dtype": "float32"}, {"name": "conv2d_274/kernel", "shape": [3, 3, 32, 48], "dtype": "float32"}, {"name": "conv2d_275/kernel", "shape": [3, 3, 48, 64], "dtype": "float32"}, {"name": "conv2d_276/kernel", "shape": [3, 3, 320, 384], "dtype": "float32"}, {"name": "conv2d_277/kernel", "shape": [1, 1, 320, 256], "dtype": "float32"}, {"name": "conv2d_278/kernel", "shape": [3, 3, 256, 256], "dtype": "float32"}, {"name": "conv2d_279/kernel", "shape": [3, 3, 256, 384], "dtype": "float32"}, {"name": "conv2d_280/kernel", "shape": [1, 1, 1088, 192], "dtype": "float32"}, {"name": "conv2d_281/kernel", "shape": [1, 1, 1088, 128], "dtype": "float32"}, {"name": "conv2d_282/kernel", "shape": [1, 7, 128, 160], "dtype": "float32"}, {"name": "conv2d_283/kernel", "shape": [7, 1, 160, 192], "dtype": "float32"}, {"name": "conv2d_284/kernel", "shape": [1, 1, 1088, 192], "dtype": "float32"}, {"name": "conv2d_285/kernel", "shape": [1, 1, 1088, 128], "dtype": "float32"}, {"name": "conv2d_286/kernel", "shape": [1, 7, 128, 160], "dtype": "float32"}, {"name": "conv2d_287/kernel", "shape": [7, 1, 160, 192], "dtype": "float32"}, {"name": "conv2d_288/kernel", "shape": [1, 1, 1088, 192], "dtype": "float32"}, {"name": "conv2d_289/kernel", "shape": [1, 1, 1088, 128], "dtype": "float32"}, {"name": "conv2d_290/kernel", "shape": [1, 7, 128, 160], "dtype": "float32"}, {"name": "conv2d_291/kernel", "shape": [7, 1, 160, 192], "dtype": "float32"}, {"name": "conv2d_292/kernel", "shape": [1, 1, 1088, 192], "dtype": "float32"}, {"name": "conv2d_293/kernel", "shape": [1, 1, 1088, 128], "dtype": "float32"}, {"name": "conv2d_294/kernel", "shape": [1, 7, 128, 160], "dtype": "float32"}, {"name": "conv2d_295/kernel", "shape": [7, 1, 160, 192], "dtype": "float32"}, {"name": "conv2d_296/kernel", "shape": [1, 1, 1088, 192], "dtype": "float32"}, {"name": "conv2d_297/kernel", "shape": [1, 1, 1088, 128], "dtype": "float32"}, {"name": "conv2d_298/kernel", "shape": [1, 7, 128, 160], "dtype": "float32"}, {"name": "conv2d_299/kernel", "shape": [7, 1, 160, 192], "dtype": "float32"}, {"name": "conv2d_300/kernel", "shape": [1, 1, 1088, 192], "dtype": "float32"}, {"name": "conv2d_301/kernel", "shape": [1, 1, 1088, 128], "dtype": "float32"}, {"name": "conv2d_302/kernel", "shape": [1, 7, 128, 160], "dtype": "float32"}, {"name": "conv2d_303/kernel", "shape": [7, 1, 160, 192], "dtype": "float32"}, {"name": "conv2d_304/kernel", "shape": [1, 1, 1088, 192], "dtype": "float32"}, {"name": "conv2d_305/kernel", "shape": [1, 1, 1088, 128], "dtype": "float32"}, {"name": "conv2d_306/kernel", "shape": [1, 7, 128, 160], "dtype": "float32"}, {"name": "conv2d_307/kernel", "shape": [7, 1, 160, 192], "dtype": "float32"}, {"name": "conv2d_308/kernel", "shape": [1, 1, 1088, 192], "dtype": "float32"}, {"name": "conv2d_309/kernel", "shape": [1, 1, 1088, 128], "dtype": "float32"}, {"name": "conv2d_310/kernel", "shape": [1, 7, 128, 160], "dtype": "float32"}, {"name": "conv2d_311/kernel", "shape": [7, 1, 160, 192], "dtype": "float32"}, {"name": "conv2d_312/kernel", "shape": [1, 1, 1088, 192], "dtype": "float32"}, {"name": "conv2d_313/kernel", "shape": [1, 1, 1088, 128], "dtype": "float32"}, {"name": "conv2d_314/kernel", "shape": [1, 7, 128, 160], "dtype": "float32"}, {"name": "conv2d_315/kernel", "shape": [7, 1, 160, 192], "dtype": "float32"}, {"name": "conv2d_316/kernel", "shape": [1, 1, 1088, 192], "dtype": "float32"}, {"name": "conv2d_317/kernel", "shape": [1, 1, 1088, 128], "dtype": "float32"}, {"name": "conv2d_318/kernel", "shape": [1, 7, 128, 160], "dtype": "float32"}, {"name": "conv2d_319/kernel", "shape": [7, 1, 160, 192], "dtype": "float32"}, {"name": "conv2d_320/kernel", "shape": [1, 1, 1088, 192], "dtype": "float32"}, {"name": "conv2d_321/kernel", "shape": [1, 1, 1088, 128], "dtype": "float32"}, {"name": "conv2d_322/kernel", "shape": [1, 7, 128, 160], "dtype": "float32"}, {"name": "conv2d_323/kernel", "shape": [7, 1, 160, 192], "dtype": "float32"}, {"name": "conv2d_324/kernel", "shape": [1, 1, 1088, 192], "dtype": "float32"}, {"name": "conv2d_325/kernel", "shape": [1, 1, 1088, 128], "dtype": "float32"}, {"name": "conv2d_326/kernel", "shape": [1, 7, 128, 160], "dtype": "float32"}, {"name": "conv2d_327/kernel", "shape": [7, 1, 160, 192], "dtype": "float32"}, {"name": "conv2d_328/kernel", "shape": [1, 1, 1088, 192], "dtype": "float32"}, {"name": "conv2d_329/kernel", "shape": [1, 1, 1088, 128], "dtype": "float32"}, {"name": "conv2d_330/kernel", "shape": [1, 7, 128, 160], "dtype": "float32"}, {"name": "conv2d_331/kernel", "shape": [7, 1, 160, 192], "dtype": "float32"}, {"name": "conv2d_332/kernel", "shape": [1, 1, 1088, 192], "dtype": "float32"}, {"name": "conv2d_333/kernel", "shape": [1, 1, 1088, 128], "dtype": "float32"}, {"name": "conv2d_334/kernel", "shape": [1, 7, 128, 160], "dtype": "float32"}, {"name": "conv2d_335/kernel", "shape": [7, 1, 160, 192], "dtype": "float32"}, {"name": "conv2d_336/kernel", "shape": [1, 1, 1088, 192], "dtype": "float32"}, {"name": "conv2d_337/kernel", "shape": [1, 1, 1088, 128], "dtype": "float32"}, {"name": "conv2d_338/kernel", "shape": [1, 7, 128, 160], "dtype": "float32"}, {"name": "conv2d_339/kernel", "shape": [7, 1, 160, 192], "dtype": "float32"}, {"name": "conv2d_340/kernel", "shape": [1, 1, 1088, 192], "dtype": "float32"}, {"name": "conv2d_341/kernel", "shape": [1, 1, 1088, 128], "dtype": "float32"}, {"name": "conv2d_342/kernel", "shape": [1, 7, 128, 160], "dtype": "float32"}, {"name": "conv2d_343/kernel", "shape": [7, 1, 160, 192], "dtype": "float32"}, {"name": "conv2d_344/kernel", "shape": [1, 1, 1088, 192], "dtype": "float32"}, {"name": "conv2d_345/kernel", "shape": [1, 1, 1088, 128], "dtype": "float32"}, {"name": "conv2d_346/kernel", "shape": [1, 7, 128, 160], "dtype": "float32"}, {"name": "conv2d_347/kernel", "shape": [7, 1, 160, 192], "dtype": "float32"}, {"name": "conv2d_348/kernel", "shape": [1, 1, 1088, 192], "dtype": "float32"}, {"name": "conv2d_349/kernel", "shape": [1, 1, 1088, 128], "dtype": "float32"}, {"name": "conv2d_350/kernel", "shape": [1, 7, 128, 160], "dtype": "float32"}, {"name": "conv2d_351/kernel", "shape": [7, 1, 160, 192], "dtype": "float32"}, {"name": "conv2d_352/kernel", "shape": [1, 1, 1088, 192], "dtype": "float32"}, {"name": "conv2d_353/kernel", "shape": [1, 1, 1088, 128], "dtype": "float32"}, {"name": "conv2d_354/kernel", "shape": [1, 7, 128, 160], "dtype": "float32"}, {"name": "conv2d_355/kernel", "shape": [7, 1, 160, 192], "dtype": "float32"}, {"name": "conv2d_356/kernel", "shape": [1, 1, 1088, 192], "dtype": "float32"}, {"name": "conv2d_357/kernel", "shape": [1, 1, 1088, 128], "dtype": "float32"}, {"name": "conv2d_358/kernel", "shape": [1, 7, 128, 160], "dtype": "float32"}, {"name": "conv2d_359/kernel", "shape": [7, 1, 160, 192], "dtype": "float32"}, {"name": "conv2d_360/kernel", "shape": [1, 1, 1088, 256], "dtype": "float32"}, {"name": "conv2d_361/kernel", "shape": [3, 3, 256, 384], "dtype": "float32"}, {"name": "conv2d_362/kernel", "shape": [1, 1, 1088, 256], "dtype": "float32"}, {"name": "conv2d_363/kernel", "shape": [3, 3, 256, 288], "dtype": "float32"}, {"name": "conv2d_364/kernel", "shape": [1, 1, 1088, 256], "dtype": "float32"}, {"name": "conv2d_365/kernel", "shape": [3, 3, 256, 288], "dtype": "float32"}, {"name": "conv2d_366/kernel", "shape": [3, 3, 288, 320], "dtype": "float32"}, {"name": "conv2d_367/kernel", "shape": [1, 1, 2080, 192], "dtype": "float32"}, {"name": "conv2d_368/kernel", "shape": [1, 1, 2080, 192], "dtype": "float32"}, {"name": "conv2d_369/kernel", "shape": [1, 3, 192, 224], "dtype": "float32"}, {"name": "conv2d_370/kernel", "shape": [3, 1, 224, 256], "dtype": "float32"}, {"name": "conv2d_371/kernel", "shape": [1, 1, 2080, 192], "dtype": "float32"}, {"name": "conv2d_372/kernel", "shape": [1, 1, 2080, 192], "dtype": "float32"}, {"name": "conv2d_373/kernel", "shape": [1, 3, 192, 224], "dtype": "float32"}, {"name": "conv2d_374/kernel", "shape": [3, 1, 224, 256], "dtype": "float32"}, {"name": "conv2d_375/kernel", "shape": [1, 1, 2080, 192], "dtype": "float32"}, {"name": "conv2d_376/kernel", "shape": [1, 1, 2080, 192], "dtype": "float32"}, {"name": "conv2d_377/kernel", "shape": [1, 3, 192, 224], "dtype": "float32"}, {"name": "conv2d_378/kernel", "shape": [3, 1, 224, 256], "dtype": "float32"}, {"name": "conv2d_379/kernel", "shape": [1, 1, 2080, 192], "dtype": "float32"}, {"name": "conv2d_380/kernel", "shape": [1, 1, 2080, 192], "dtype": "float32"}, {"name": "conv2d_381/kernel", "shape": [1, 3, 192, 224], "dtype": "float32"}, {"name": "conv2d_382/kernel", "shape": [3, 1, 224, 256], "dtype": "float32"}, {"name": "conv2d_383/kernel", "shape": [1, 1, 2080, 192], "dtype": "float32"}, {"name": "conv2d_384/kernel", "shape": [1, 1, 2080, 192], "dtype": "float32"}, {"name": "conv2d_385/kernel", "shape": [1, 3, 192, 224], "dtype": "float32"}, {"name": "conv2d_386/kernel", "shape": [3, 1, 224, 256], "dtype": "float32"}, {"name": "conv2d_387/kernel", "shape": [1, 1, 2080, 192], "dtype": "float32"}, {"name": "conv2d_388/kernel", "shape": [1, 1, 2080, 192], "dtype": "float32"}, {"name": "conv2d_389/kernel", "shape": [1, 3, 192, 224], "dtype": "float32"}, {"name": "conv2d_390/kernel", "shape": [3, 1, 224, 256], "dtype": "float32"}, {"name": "conv2d_391/kernel", "shape": [1, 1, 2080, 192], "dtype": "float32"}, {"name": "conv2d_392/kernel", "shape": [1, 1, 2080, 192], "dtype": "float32"}, {"name": "conv2d_393/kernel", "shape": [1, 3, 192, 224], "dtype": "float32"}, {"name": "conv2d_394/kernel", "shape": [3, 1, 224, 256], "dtype": "float32"}, {"name": "conv2d_395/kernel", "shape": [1, 1, 2080, 192], "dtype": "float32"}, {"name": "conv2d_396/kernel", "shape": [1, 1, 2080, 192], "dtype": "float32"}, {"name": "conv2d_397/kernel", "shape": [1, 3, 192, 224], "dtype": "float32"}, {"name": "conv2d_398/kernel", "shape": [3, 1, 224, 256], "dtype": "float32"}, {"name": "conv2d_399/kernel", "shape": [1, 1, 2080, 192], "dtype": "float32"}, {"name": "conv2d_400/kernel", "shape": [1, 1, 2080, 192], "dtype": "float32"}, {"name": "conv2d_401/kernel", "shape": [1, 3, 192, 224], "dtype": "float32"}, {"name": "conv2d_402/kernel", "shape": [3, 1, 224, 256], "dtype": "float32"}, {"name": "conv2d_403/kernel", "shape": [1, 1, 2080, 192], "dtype": "float32"}, {"name": "conv2d_404/kernel", "shape": [1, 1, 2080, 192], "dtype": "float32"}, {"name": "conv2d_405/kernel", "shape": [1, 3, 192, 224], "dtype": "float32"}, {"name": "conv2d_406/kernel", "shape": [3, 1, 224, 256], "dtype": "float32"}, {"name": "conv_7b/kernel", "shape": [1, 1, 2080, 1536], "dtype": "float32"}, {"name": "conv_7b_bn/beta", "shape": [1536], "dtype": "float32"}, {"name": "conv_7b_bn/moving_mean", "shape": [1536], "dtype": "float32"}, {"name": "conv_7b_bn/moving_variance", "shape": [1536], "dtype": "float32"}, {"name": "dense_4/kernel", "shape": [1536, 1024], "dtype": "float32"}, {"name": "dense_4/bias", "shape": [1024], "dtype": "float32"}, {"name": "dense_5/kernel", "shape": [1024, 1024], "dtype": "float32"}, {"name": "dense_5/bias", "shape": [1024], "dtype": "float32"}, {"name": "dense_6/kernel", "shape": [1024, 6], "dtype": "float32"}, {"name": "dense_6/bias", "shape": [6], "dtype": "float32"}]}]}